{"modelTopology":{"node":[{"input":[],"attr":{"dtype":{"type":1},"shape":{"shape":{"dim":[{"size":"1"},{"size":"224"},{"size":"224"},{"size":"3"}]}}},"name":"input","op":"Placeholder"},{"input":[],"attr":{"value":{"tensor":{"floatVal":[],"doubleVal":[],"intVal":[],"stringVal":[],"scomplexVal":[],"int64Val":[],"boolVal":[],"uint32Val":[],"uint64Val":[],"dtype":1,"tensorShape":{"dim":[{"size":"3"},{"size":"3"},{"size":"3"},{"size":"8"}]}}},"dtype":{"type":1}},"name":"MobilenetV1/Conv2d_0/weights","op":"Const"},{"input":[],"attr":{"dtype":{"type":1},"value":{"tensor":{"floatVal":[0.13317608833312988,-0.5192528367042542,33.288787841796875,32.41108322143555,-0.5764886736869812,47.660396575927734,0.19971005618572235,35.93635559082031],"doubleVal":[],"intVal":[],"stringVal":[],"scomplexVal":[],"int64Val":[],"boolVal":[],"uint32Val":[],"uint64Val":[],"dtype":1,"tensorShape":{"dim":[{"size":"8"}]}}}},"name":"MobilenetV1/MobilenetV1/Conv2d_0/BatchNorm/batchnorm/mul","op":"Const"},{"input":[],"attr":{"value":{"tensor":{"floatVal":[2.1328322887420654,2.823498487472534,0.279387891292572,-0.3890992999076843,2.8380751609802246,3.5726428031921387,3.0919482707977295,-0.35070210695266724],"doubleVal":[],"intVal":[],"stringVal":[],"scomplexVal":[],"int64Val":[],"boolVal":[],"uint32Val":[],"uint64Val":[],"dtype":1,"tensorShape":{"dim":[{"size":"8"}]}}},"dtype":{"type":1}},"name":"MobilenetV1/MobilenetV1/Conv2d_0/BatchNorm/batchnorm/sub","op":"Const"},{"input":[],"attr":{"dtype":{"type":1},"value":{"tensor":{"floatVal":[],"doubleVal":[],"intVal":[],"stringVal":[],"scomplexVal":[],"int64Val":[],"boolVal":[],"uint32Val":[],"uint64Val":[],"dtype":1,"tensorShape":{"dim":[{"size":"3"},{"size":"3"},{"size":"8"},{"size":"1"}]}}}},"name":"MobilenetV1/Conv2d_1_depthwise/depthwise_weights","op":"Const"},{"input":[],"attr":{"dtype":{"type":1},"value":{"tensor":{"floatVal":[-0.08730342984199524,0.06893635541200638,0.4936438202857971,2.178069829940796,0.05636037886142731,-0.004148146137595177,0.08356041461229324,-16.795860290527344],"doubleVal":[],"intVal":[],"stringVal":[],"scomplexVal":[],"int64Val":[],"boolVal":[],"uint32Val":[],"uint64Val":[],"dtype":1,"tensorShape":{"dim":[{"size":"8"}]}}}},"name":"MobilenetV1/MobilenetV1/Conv2d_1_depthwise/BatchNorm/batchnorm/mul","op":"Const"},{"input":[],"attr":{"dtype":{"type":1},"value":{"tensor":{"floatVal":[7.772184371948242,3.424517869949341,0.4091050624847412,-0.35674160718917847,3.591848850250244,5.364180564880371,7.38404655456543,-0.7311563491821289],"doubleVal":[],"intVal":[],"stringVal":[],"scomplexVal":[],"int64Val":[],"boolVal":[],"uint32Val":[],"uint64Val":[],"dtype":1,"tensorShape":{"dim":[{"size":"8"}]}}}},"name":"MobilenetV1/MobilenetV1/Conv2d_1_depthwise/BatchNorm/batchnorm/sub","op":"Const"},{"input":[],"attr":{"value":{"tensor":{"floatVal":[],"doubleVal":[],"intVal":[],"stringVal":[],"scomplexVal":[],"int64Val":[],"boolVal":[],"uint32Val":[],"uint64Val":[],"dtype":1,"tensorShape":{"dim":[{"size":"1"},{"size":"1"},{"size":"8"},{"size":"16"}]}}},"dtype":{"type":1}},"name":"MobilenetV1/Conv2d_1_pointwise/weights","op":"Const"},{"input":[],"attr":{"dtype":{"type":1},"value":{"tensor":{"floatVal":[… "doubleVal":[],"intVal":[],"stringVal":[],"scomplexVal":[],"int64Val":[],"boolVal":[],"uint32Val":[],"uint64Val":[],"dtype":1,"tensorShape":{"dim":[{"size":"16"}]}}}},"name":"MobilenetV1/MobilenetV1/Conv2d_1_pointwise/BatchNorm/batchnorm/mul","op":"Const"},{"input":[],"attr":{"value":{"tensor":{"floatVal":[… "doubleVal":[],"intVal":[],"stringVal":[],"scomplexVal":[],"int64Val":[],"boolVal":[],"uint32Val":[],"uint64Val":[],"dtype":1,"tensorShape":{"dim":[{"size":"16"}]}}},"dtype":{"type":1}},"name":"MobilenetV1/MobilenetV1/Conv2d_1_pointwise/BatchNorm/batchnorm/sub","op":"Const"},{"input":[],"attr":{"value":{"tensor":{"floatVal":[],"doubleVal":[],"intVal":[],"stringVal":[],"scomplexVal":[],"int64Val":[],"boolVal":[],"uint32Val":[],"uint64Val":[],"dtype":1,"tensorShape":{"dim":[{"size":"3"},{"size":"3"},{"size":"16"},{"size":"1"}]}}},"dtype":{"type":1}},"name":"MobilenetV1/Conv2d_2_depthwise/depthwise_weights","op":"Const"},{"input":[],"attr":{"value":{"tensor":{"floatVal":[… "doubleVal":[],"intVal":[],"stringVal":[],"scomplexVal":[],"int64Val":[],"boolVal":[],"uint32Val":[],"uint64Val":[],"dtype":1,"tensorShape":{"dim":[{"size":"16"}]}}},"dtype":{"type":1}},"name":"MobilenetV1/MobilenetV1/Conv2d_2_depthwise/BatchNorm/batchnorm/mul","op":"Const"},{"input":[],"attr":{"value":{"tensor":{"floatVal":[… "doubleVal":[],"intVal":[],"stringVal":[],"scomplexVal":[],"int64Val":[],"boolVal":[],"uint32Val":[],"uint64Val":[],"dtype":1,"tensorShape":{"dim":[{"size":"16"}]}}},"dtype":{"type":1}},"name":"MobilenetV1/MobilenetV1/Conv2d_2_depthwise/BatchNorm/batchnorm/sub","op":"Const"},{"input":[],"attr":{"dtype":{"type":1},"value":{"tensor":{"floatVal":[],"doubleVal":[],"intVal":[],"stringVal":[],"scomplexVal":[],"int64Val":[],"boolVal":[],"uint32Val":[],"uint64Val":[],"dtype":1,"tensorShape":{"dim":[{"size":"1"},{"size":"1"},{"size":"16"},{"size":"32"}]}}}},"name":"MobilenetV1/Conv2d_2_pointwise/weights","op":"Const"},{"input":[],"attr":{"dtype":{"type":1},"value":{"tensor":{"floatVal":[… "doubleVal":[],"intVal":[],"stringVal":[],"scomplexVal":[],"int64Val":[],"boolVal":[],"uint32Val":[],"uint64Val":[],"dtype":1,"tensorShape":{"dim":[{"size":"32"}]}}}},"name":"MobilenetV1/MobilenetV1/Conv2d_2_pointwise/BatchNorm/batchnorm/mul","op":"Const"},{"input":[],"attr":{"value":{"tensor":{"floatVal":[… "doubleVal":[],"intVal":[],"stringVal":[],"scomplexVal":[],"int64Val":[],"boolVal":[],"uint32Val":[],"uint64Val":[],"dtype":1,"tensorShape":{"dim":[{"size":"32"}]}}},"dtype":{"type":1}},"name":"MobilenetV1/MobilenetV1/Conv2d_2_pointwise/BatchNorm/batchnorm/sub","op":"Const"},{"input":[],"attr":{"dtype":{"type":1},"value":{"tensor":{"floatVal":[],"doubleVal":[],"intVal":[],"stringVal":[],"scomplexVal":[],"int64Val":[],"boolVal":[],"uint32Val":[],"uint64Val":[],"dtype":1,"tensorShape":{"dim":[{"size":"3"},{"size":"3"},{"size":"32"},{"size":"1"}]}}}},"name":"MobilenetV1/Conv2d_3_depthwise/depthwise_weights","op":"Const"},{"input":[],"attr":{"dtype":{"type":1},"value":{"tensor":{"floatVal":[… "doubleVal":[],"intVal":[],"stringVal":[],"scomplexVal":[],"int64Val":[],"boolVal":[],"uint32Val":[],"uint64Val":[],"dtype":1,"tensorShape":{"dim":[{"size":"32"}]}}}},"name":"MobilenetV1/MobilenetV1/Conv2d_3_depthwise/BatchNorm/batchnorm/mul","op":"Const"},{"input":[],"attr":{"value":{"tensor":{"floatVal":[… "doubleVal":[],"intVal":[],"stringVal":[],"scomplexVal":[],"int64Val":[],"boolVal":[],"uint32Val":[],"uint64Val":[],"dtype":1,"tensorShape":{"dim":[{"size":"32"}]}}},"dtype":{"type":1}},"name":"MobilenetV1/MobilenetV1/Conv2d_3_depthwise/BatchNorm/batchnorm/sub","op":"Const"},{"input":[],"attr":{"value":{"tensor":{"floatVal":[],"doubleVal":[],"intVal":[],"stringVal":[],"scomplexVal":[],"int64Val":[],"boolVal":[],"uint32Val":[],"uint64Val":[],"dtype":1,"tensorShape":{"dim":[{"size":"1"},{"size":"1"},{"size":"32"},{"size":"32"}]}}},"dtype":{"type":1}},"name":"MobilenetV1/Conv2d_3_pointwise/weights","op":"Const"},{"input":[],"attr":{"value":{"tensor":{"floatVal":[… "doubleVal":[],"intVal":[],"stringVal":[],"scomplexVal":[],"int64Val":[],"boolVal":[],"uint32Val":[],"uint64Val":[],"dtype":1,"tensorShape":{"dim":[{"size":"32"}]}}},"dtype":{"type":1}},"name":"MobilenetV1/MobilenetV1/Conv2d_3_pointwise/BatchNorm/batchnorm/mul","op":"Const"},{"input":[],"attr":{"value":{"tensor":{"floatVal":[… "doubleVal":[],"intVal":[],"stringVal":[],"scomplexVal":[],"int64Val":[],"boolVal":[],"uint32Val":[],"uint64Val":[],"dtype":1,"tensorShape":{"dim":[{"size":"32"}]}}},"dtype":{"type":1}},"name":"MobilenetV1/MobilenetV1/Conv2d_3_pointwise/BatchNorm/batchnorm/sub","op":"Const"},{"input":[],"attr":{"value":{"tensor":{"floatVal":[],"doubleVal":[],"intVal":[],"stringVal":[],"scomplexVal":[],"int64Val":[],"boolVal":[],"uint32Val":[],"uint64Val":[],"dtype":1,"tensorShape":{"dim":[{"size":"3"},{"size":"3"},{"size":"32"},{"size":"1"}]}}},"dtype":{"type":1}},"name":"MobilenetV1/Conv2d_4_depthwise/depthwise_weights","op":"Const"},{"input":[],"attr":{"value":{"tensor":{"floatVal":[… "doubleVal":[],"intVal":[],"stringVal":[],"scomplexVal":[],"int64Val":[],"boolVal":[],"uint32Val":[],"uint64Val":[],"dtype":1,"tensorShape":{"dim":[{"size":"32"}]}}},"dtype":{"type":1}},"name":"MobilenetV1/MobilenetV1/Conv2d_4_depthwise/BatchNorm/batchnorm/mul","op":"Const"},{"input":[],"attr":{"dtype":{"type":1},"value":{"tensor":{"floatVal":[… "doubleVal":[],"intVal":[],"stringVal":[],"scomplexVal":[],"int64Val":[],"boolVal":[],"uint32Val":[],"uint64Val":[],"dtype":1,"tensorShape":{"dim":[{"size":"32"}]}}}},"name":"MobilenetV1/MobilenetV1/Conv2d_4_depthwise/BatchNorm/batchnorm/sub","op":"Const"},{"input":[],"attr":{"value":{"tensor":{"floatVal":[],"doubleVal":[],"intVal":[],"stringVal":[],"scomplexVal":[],"int64Val":[],"boolVal":[],"uint32Val":[],"uint64Val":[],"dtype":1,"tensorShape":{"dim":[{"size":"1"},{"size":"1"},{"size":"32"},{"size":"64"}]}}},"dtype":{"type":1}},"name":"MobilenetV1/Conv2d_4_pointwise/weights","op":"Const"},{"input":[],"attr":{"dtype":{"type":1},"value":{"tensor":{"floatVal":[… "doubleVal":[],"intVal":[],"stringVal":[],"scomplexVal":[],"int64Val":[],"boolVal":[],"uint32Val":[],"uint64Val":[],"dtype":1,"tensorShape":{"dim":[{"size":"64"}]}}}},"name":"MobilenetV1/MobilenetV1/Conv2d_4_pointwise/BatchNorm/batchnorm/mul","op":"Const"},{"input":[],"attr":{"dtype":{"type":1},"value":{"tensor":{"floatVal":[… "doubleVal":[],"intVal":[],"stringVal":[],"scomplexVal":[],"int64Val":[],"boolVal":[],"uint32Val":[],"uint64Val":[],"dtype":1,"tensorShape":{"dim":[{"size":"64"}]}}}},"name":"MobilenetV1/MobilenetV1/Conv2d_4_pointwise/BatchNorm/batchnorm/sub","op":"Const"},{"input":[],"attr":{"value":{"tensor":{"floatVal":[],"doubleVal":[],"intVal":[],"stringVal":[],"scomplexVal":[],"int64Val":[],"boolVal":[],"uint32Val":[],"uint64Val":[],"dtype":1,"tensorShape":{"dim":[{"size":"3"},{"size":"3"},{"size":"64"},{"size":"1"}]}}},"dtype":{"type":1}},"name":"MobilenetV1/Conv2d_5_depthwise/depthwise_weights","op":"Const"},{"input":[],"attr":{"value":{"tensor":{"floatVal":[… "doubleVal":[],"intVal":[],"stringVal":[],"scomplexVal":[],"int64Val":[],"boolVal":[],"uint32Val":[],"uint64Val":[],"dtype":1,"tensorShape":{"dim":[{"size":"64"}]}}},"dtype":{"type":1}},"name":"MobilenetV1/MobilenetV1/Conv2d_5_depthwise/BatchNorm/batchnorm/mul","op":"Const"},{"input":[],"attr":{"value":{"tensor":{"floatVal":[… "doubleVal":[],"intVal":[],"stringVal":[],"scomplexVal":[],"int64Val":[],"boolVal":[],"uint32Val":[],"uint64Val":[],"dtype":1,"tensorShape":{"dim":[{"size":"64"}]}}},"dtype":{"type":1}},"name":"MobilenetV1/MobilenetV1/Conv2d_5_depthwise/BatchNorm/batchnorm/sub","op":"Const"},{"input":[],"attr":{"value":{"tensor":{"floatVal":[],"doubleVal":[],"intVal":[],"stringVal":[],"scomplexVal":[],"int64Val":[],"boolVal":[],"uint32Val":[],"uint64Val":[],"dtype":1,"tensorShape":{"dim":[{"size":"1"},{"size":"1"},{"size":"64"},{"size":"64"}]}}},"dtype":{"type":1}},"name":"MobilenetV1/Conv2d_5_pointwise/weights","op":"Const"},{"input":[],"attr":{"value":{"tensor":{"floatVal":[… "doubleVal":[],"intVal":[],"stringVal":[],"scomplexVal":[],"int64Val":[],"boolVal":[],"uint32Val":[],"uint64Val":[],"dtype":1,"tensorShape":{"dim":[{"size":"64"}]}}},"dtype":{"type":1}},"name":"MobilenetV1/MobilenetV1/Conv2d_5_pointwise/BatchNorm/batchnorm/mul","op":"Const"},{"input":[],"attr":{"value":{"tensor":{"floatVal":[… "doubleVal":[],"intVal":[],"stringVal":[],"scomplexVal":[],"int64Val":[],"boolVal":[],"uint32Val":[],"uint64Val":[],"dtype":1,"tensorShape":{"dim":[{"size":"64"}]}}},"dtype":{"type":1}},"name":"MobilenetV1/MobilenetV1/Conv2d_5_pointwise/BatchNorm/batchnorm/sub","op":"Const"},{"input":[],"attr":{"dtype":{"type":1},"value":{"tensor":{"floatVal":[],"doubleVal":[],"intVal":[],"stringVal":[],"scomplexVal":[],"int64Val":[],"boolVal":[],"uint32Val":[],"uint64Val":[],"dtype":1,"tensorShape":{"dim":[{"size":"3"},{"size":"3"},{"size":"64"},{"size":"1"}]}}}},"name":"MobilenetV1/Conv2d_6_depthwise/depthwise_weights","op":"Const"},{"input":[],"attr":{"value":{"tensor":{"floatVal":[… "doubleVal":[],"intVal":[],"stringVal":[],"scomplexVal":[],"int64Val":[],"boolVal":[],"uint32Val":[],"uint64Val":[],"dtype":1,"tensorShape":{"dim":[{"size":"64"}]}}},"dtype":{"type":1}},"name":"MobilenetV1/MobilenetV1/Conv2d_6_depthwise/BatchNorm/batchnorm/mul","op":"Const"},{"input":[],"attr":{"value":{"tensor":{"floatVal":[… "doubleVal":[],"intVal":[],"stringVal":[],"scomplexVal":[],"int64Val":[],"boolVal":[],"uint32Val":[],"uint64Val":[],"dtype":1,"tensorShape":{"dim":[{"size":"64"}]}}},"dtype":{"type":1}},"name":"MobilenetV1/MobilenetV1/Conv2d_6_depthwise/BatchNorm/batchnorm/sub","op":"Const"},{"input":[],"attr":{"value":{"tensor":{"floatVal":[],"doubleVal":[],"intVal":[],"stringVal":[],"scomplexVal":[],"int64Val":[],"boolVal":[],"uint32Val":[],"uint64Val":[],"dtype":1,"tensorShape":{"dim":[{"size":"1"},{"size":"1"},{"size":"64"},{"size":"128"}]}}},"dtype":{"type":1}},"name":"MobilenetV1/Conv2d_6_pointwise/weights","op":"Const"},{"input":[],"attr":{"value":{"tensor":{"floatVal":[… "doubleVal":[],"intVal":[],"stringVal":[],"scomplexVal":[],"int64Val":[],"boolVal":[],"uint32Val":[],"uint64Val":[],"dtype":1,"tensorShape":{"dim":[{"size":"128"}]}}},"dtype":{"type":1}},"name":"MobilenetV1/MobilenetV1/Conv2d_6_pointwise/BatchNorm/batchnorm/mul","op":"Const"},{"input":[],"attr":{"value":{"tensor":{"floatVal":[… "doubleVal":[],"intVal":[],"stringVal":[],"scomplexVal":[],"int64Val":[],"boolVal":[],"uint32Val":[],"uint64Val":[],"dtype":1,"tensorShape":{"dim":[{"size":"128"}]}}},"dtype":{"type":1}},"name":"MobilenetV1/MobilenetV1/Conv2d_6_pointwise/BatchNorm/batchnorm/sub","op":"Const"},{"input":[],"attr":{"value":{"tensor":{"floatVal":[],"doubleVal":[],"intVal":[],"stringVal":[],"scomplexVal":[],"int64Val":[],"boolVal":[],"uint32Val":[],"uint64Val":[],"dtype":1,"tensorShape":{"dim":[{"size":"3"},{"size":"3"},{"size":"128"},{"size":"1"}]}}},"dtype":{"type":1}},"name":"MobilenetV1/Conv2d_7_depthwise/depthwise_weights","op":"Const"},{"input":[],"attr":{"value":{"tensor":{"floatVal":[… "doubleVal":[],"intVal":[],"stringVal":[],"scomplexVal":[],"int64Val":[],"boolVal":[],"uint32Val":[],"uint64Val":[],"dtype":1,"tensorShape":{"dim":[{"size":"128"}]}}},"dtype":{"type":1}},"name":"MobilenetV1/MobilenetV1/Conv2d_7_depthwise/BatchNorm/batchnorm/mul","op":"Const"},{"input":[],"attr":{"value":{"tensor":{"floatVal":[… "doubleVal":[],"intVal":[],"stringVal":[],"scomplexVal":[],"int64Val":[],"boolVal":[],"uint32Val":[],"uint64Val":[],"dtype":1,"tensorShape":{"dim":[{"size":"128"}]}}},"dtype":{"type":1}},"name":"MobilenetV1/MobilenetV1/Conv2d_7_depthwise/BatchNorm/batchnorm/sub","op":"Const"},{"input":[],"attr":{"value":{"tensor":{"floatVal":[],"doubleVal":[],"intVal":[],"stringVal":[],"scomplexVal":[],"int64Val":[],"boolVal":[],"uint32Val":[],"uint64Val":[],"dtype":1,"tensorShape":{"dim":[{"size":"1"},{"size":"1"},{"size":"128"},{"size":"128"}]}}},"dtype":{"type":1}},"name":"MobilenetV1/Conv2d_7_pointwise/weights","op":"Const"},{"input":[],"attr":{"value":{"tensor":{"floatVal":[… "doubleVal":[],"intVal":[],"stringVal":[],"scomplexVal":[],"int64Val":[],"boolVal":[],"uint32Val":[],"uint64Val":[],"dtype":1,"tensorShape":{"dim":[{"size":"128"}]}}},"dtype":{"type":1}},"name":"MobilenetV1/MobilenetV1/Conv2d_7_pointwise/BatchNorm/batchnorm/mul","op":"Const"},{"input":[],"attr":{"value":{"tensor":{"floatVal":[… "doubleVal":[],"intVal":[],"stringVal":[],"scomplexVal":[],"int64Val":[],"boolVal":[],"uint32Val":[],"uint64Val":[],"dtype":1,"tensorShape":{"dim":[{"size":"128"}]}}},"dtype":{"type":1}},"name":"MobilenetV1/MobilenetV1/Conv2d_7_pointwise/BatchNorm/batchnorm/sub","op":"Const"},{"input":[],"attr":{"value":{"tensor":{"floatVal":[],"doubleVal":[],"intVal":[],"stringVal":[],"scomplexVal":[],"int64Val":[],"boolVal":[],"uint32Val":[],"uint64Val":[],"dtype":1,"tensorShape":{"dim":[{"size":"3"},{"size":"3"},{"size":"128"},{"size":"1"}]}}},"dtype":{"type":1}},"name":"MobilenetV1/Conv2d_8_depthwise/depthwise_weights","op":"Const"},{"input":[],"attr":{"value":{"tensor":{"floatVal":[… "doubleVal":[],"intVal":[],"stringVal":[],"scomplexVal":[],"int64Val":[],"boolVal":[],"uint32Val":[],"uint64Val":[],"dtype":1,"tensorShape":{"dim":[{"size":"128"}]}}},"dtype":{"type":1}},"name":"MobilenetV1/MobilenetV1/Conv2d_8_depthwise/BatchNorm/batchnorm/mul","op":"Const"},{"input":[],"attr":{"dtype":{"type":1},"value":{"tensor":{"floatVal":[… "doubleVal":[],"intVal":[],"stringVal":[],"scomplexVal":[],"int64Val":[],"boolVal":[],"uint32Val":[],"uint64Val":[],"dtype":1,"tensorShape":{"dim":[{"size":"128"}]}}}},"name":"MobilenetV1/MobilenetV1/Conv2d_8_depthwise/BatchNorm/batchnorm/sub","op":"Const"},{"input":[],"attr":{"value":{"tensor":{"floatVal":[],"doubleVal":[],"intVal":[],"stringVal":[],"scomplexVal":[],"int64Val":[],"boolVal":[],"uint32Val":[],"uint64Val":[],"dtype":1,"tensorShape":{"dim":[{"size":"1"},{"size":"1"},{"size":"128"},{"size":"128"}]}}},"dtype":{"type":1}},"name":"MobilenetV1/Conv2d_8_pointwise/weights","op":"Const"},{"input":[],"attr":{"value":{"tensor":{"floatVal":[… "doubleVal":[],"intVal":[],"stringVal":[],"scomplexVal":[],"int64Val":[],"boolVal":[],"uint32Val":[],"uint64Val":[],"dtype":1,"tensorShape":{"dim":[{"size":"128"}]}}},"dtype":{"type":1}},"name":"MobilenetV1/MobilenetV1/Conv2d_8_pointwise/BatchNorm/batchnorm/mul","op":"Const"},{"input":[],"attr":{"value":{"tensor":{"floatVal":[… "doubleVal":[],"intVal":[],"stringVal":[],"scomplexVal":[],"int64Val":[],"boolVal":[],"uint32Val":[],"uint64Val":[],"dtype":1,"tensorShape":{"dim":[{"size":"128"}]}}},"dtype":{"type":1}},"name":"MobilenetV1/MobilenetV1/Conv2d_8_pointwise/BatchNorm/batchnorm/sub","op":"Const"},{"input":[],"attr":{"value":{"tensor":{"floatVal":[],"doubleVal":[],"intVal":[],"stringVal":[],"scomplexVal":[],"int64Val":[],"boolVal":[],"uint32Val":[],"uint64Val":[],"dtype":1,"tensorShape":{"dim":[{"size":"3"},{"size":"3"},{"size":"128"},{"size":"1"}]}}},"dtype":{"type":1}},"name":"MobilenetV1/Conv2d_9_depthwise/depthwise_weights","op":"Const"},{"input":[],"attr":{"dtype":{"type":1},"value":{"tensor":{"floatVal":[… "doubleVal":[],"intVal":[],"stringVal":[],"scomplexVal":[],"int64Val":[],"boolVal":[],"uint32Val":[],"uint64Val":[],"dtype":1,"tensorShape":{"dim":[{"size":"128"}]}}}},"name":"MobilenetV1/MobilenetV1/Conv2d_9_depthwise/BatchNorm/batchnorm/mul","op":"Const"},{"input":[],"attr":{"value":{"tensor":{"floatVal":[… "doubleVal":[],"intVal":[],"stringVal":[],"scomplexVal":[],"int64Val":[],"boolVal":[],"uint32Val":[],"uint64Val":[],"dtype":1,"tensorShape":{"dim":[{"size":"128"}]}}},"dtype":{"type":1}},"name":"MobilenetV1/MobilenetV1/Conv2d_9_depthwise/BatchNorm/batchnorm/sub","op":"Const"},{"input":[],"attr":{"value":{"tensor":{"floatVal":[],"doubleVal":[],"intVal":[],"stringVal":[],"scomplexVal":[],"int64Val":[],"boolVal":[],"uint32Val":[],"uint64Val":[],"dtype":1,"tensorShape":{"dim":[{"size":"1"},{"size":"1"},{"size":"128"},{"size":"128"}]}}},"dtype":{"type":1}},"name":"MobilenetV1/Conv2d_9_pointwise/weights","op":"Const"},{"input":[],"attr":{"value":{"tensor":{"floatVal":[… "doubleVal":[],"intVal":[],"stringVal":[],"scomplexVal":[],"int64Val":[],"boolVal":[],"uint32Val":[],"uint64Val":[],"dtype":1,"tensorShape":{"dim":[{"size":"128"}]}}},"dtype":{"type":1}},"name":"MobilenetV1/MobilenetV1/Conv2d_9_pointwise/BatchNorm/batchnorm/mul","op":"Const"},{"input":[],"attr":{"value":{"tensor":{"floatVal":[… "doubleVal":[],"intVal":[],"stringVal":[],"scomplexVal":[],"int64Val":[],"boolVal":[],"uint32Val":[],"uint64Val":[],"dtype":1,"tensorShape":{"dim":[{"size":"128"}]}}},"dtype":{"type":1}},"name":"MobilenetV1/MobilenetV1/Conv2d_9_pointwise/BatchNorm/batchnorm/sub","op":"Const"},{"input":[],"attr":{"dtype":{"type":1},"value":{"tensor":{"floatVal":[],"doubleVal":[],"intVal":[],"stringVal":[],"scomplexVal":[],"int64Val":[],"boolVal":[],"uint32Val":[],"uint64Val":[],"dtype":1,"tensorShape":{"dim":[{"size":"3"},{"size":"3"},{"size":"128"},{"size":"1"}]}}}},"name":"MobilenetV1/Conv2d_10_depthwise/depthwise_weights","op":"Const"},{"input":[],"attr":{"value":{"tensor":{"floatVal":[… "doubleVal":[],"intVal":[],"stringVal":[],"scomplexVal":[],"int64Val":[],"boolVal":[],"uint32Val":[],"uint64Val":[],"dtype":1,"tensorShape":{"dim":[{"size":"128"}]}}},"dtype":{"type":1}},"name":"MobilenetV1/MobilenetV1/Conv2d_10_depthwise/BatchNorm/batchnorm/mul","op":"Const"},{"input":[],"attr":{"value":{"tensor":{"floatVal":[… "doubleVal":[],"intVal":[],"stringVal":[],"scomplexVal":[],"int64Val":[],"boolVal":[],"uint32Val":[],"uint64Val":[],"dtype":1,"tensorShape":{"dim":[{"size":"128"}]}}},"dtype":{"type":1}},"name":"MobilenetV1/MobilenetV1/Conv2d_10_depthwise/BatchNorm/batchnorm/sub","op":"Const"},{"input":[],"attr":{"value":{"tensor":{"floatVal":[],"doubleVal":[],"intVal":[],"stringVal":[],"scomplexVal":[],"int64Val":[],"boolVal":[],"uint32Val":[],"uint64Val":[],"dtype":1,"tensorShape":{"dim":[{"size":"1"},{"size":"1"},{"size":"128"},{"size":"128"}]}}},"dtype":{"type":1}},"name":"MobilenetV1/Conv2d_10_pointwise/weights","op":"Const"},{"input":[],"attr":{"value":{"tensor":{"floatVal":[… "doubleVal":[],"intVal":[],"stringVal":[],"scomplexVal":[],"int64Val":[],"boolVal":[],"uint32Val":[],"uint64Val":[],"dtype":1,"tensorShape":{"dim":[{"size":"128"}]}}},"dtype":{"type":1}},"name":"MobilenetV1/MobilenetV1/Conv2d_10_pointwise/BatchNorm/batchnorm/mul","op":"Const"},{"input":[],"attr":{"value":{"tensor":{"floatVal":[… "doubleVal":[],"intVal":[],"stringVal":[],"scomplexVal":[],"int64Val":[],"boolVal":[],"uint32Val":[],"uint64Val":[],"dtype":1,"tensorShape":{"dim":[{"size":"128"}]}}},"dtype":{"type":1}},"name":"MobilenetV1/MobilenetV1/Conv2d_10_pointwise/BatchNorm/batchnorm/sub","op":"Const"},{"input":[],"attr":{"value":{"tensor":{"floatVal":[],"doubleVal":[],"intVal":[],"stringVal":[],"scomplexVal":[],"int64Val":[],"boolVal":[],"uint32Val":[],"uint64Val":[],"dtype":1,"tensorShape":{"dim":[{"size":"3"},{"size":"3"},{"size":"128"},{"size":"1"}]}}},"dtype":{"type":1}},"name":"MobilenetV1/Conv2d_11_depthwise/depthwise_weights","op":"Const"},{"input":[],"attr":{"value":{"tensor":{"floatVal":[… "doubleVal":[],"intVal":[],"stringVal":[],"scomplexVal":[],"int64Val":[],"boolVal":[],"uint32Val":[],"uint64Val":[],"dtype":1,"tensorShape":{"dim":[{"size":"128"}]}}},"dtype":{"type":1}},"name":"MobilenetV1/MobilenetV1/Conv2d_11_depthwise/BatchNorm/batchnorm/mul","op":"Const"},{"input":[],"attr":{"value":{"tensor":{"floatVal":[… "doubleVal":[],"intVal":[],"stringVal":[],"scomplexVal":[],"int64Val":[],"boolVal":[],"uint32Val":[],"uint64Val":[],"dtype":1,"tensorShape":{"dim":[{"size":"128"}]}}},"dtype":{"type":1}},"name":"MobilenetV1/MobilenetV1/Conv2d_11_depthwise/BatchNorm/batchnorm/sub","op":"Const"},{"input":[],"attr":{"value":{"tensor":{"floatVal":[],"doubleVal":[],"intVal":[],"stringVal":[],"scomplexVal":[],"int64Val":[],"boolVal":[],"uint32Val":[],"uint64Val":[],"dtype":1,"tensorShape":{"dim":[{"size":"1"},{"size":"1"},{"size":"128"},{"size":"128"}]}}},"dtype":{"type":1}},"name":"MobilenetV1/Conv2d_11_pointwise/weights","op":"Const"},{"input":[],"attr":{"value":{"tensor":{"floatVal":[… "doubleVal":[],"intVal":[],"stringVal":[],"scomplexVal":[],"int64Val":[],"boolVal":[],"uint32Val":[],"uint64Val":[],"dtype":1,"tensorShape":{"dim":[{"size":"128"}]}}},"dtype":{"type":1}},"name":"MobilenetV1/MobilenetV1/Conv2d_11_pointwise/BatchNorm/batchnorm/mul","op":"Const"},{"input":[],"attr":{"value":{"tensor":{"floatVal":[… "doubleVal":[],"intVal":[],"stringVal":[],"scomplexVal":[],"int64Val":[],"boolVal":[],"uint32Val":[],"uint64Val":[],"dtype":1,"tensorShape":{"dim":[{"size":"128"}]}}},"dtype":{"type":1}},"name":"MobilenetV1/MobilenetV1/Conv2d_11_pointwise/BatchNorm/batchnorm/sub","op":"Const"},{"input":[],"attr":{"value":{"tensor":{"floatVal":[],"doubleVal":[],"intVal":[],"stringVal":[],"scomplexVal":[],"int64Val":[],"boolVal":[],"uint32Val":[],"uint64Val":[],"dtype":1,"tensorShape":{"dim":[{"size":"3"},{"size":"3"},{"size":"128"},{"size":"1"}]}}},"dtype":{"type":1}},"name":"MobilenetV1/Conv2d_12_depthwise/depthwise_weights","op":"Const"},{"input":[],"attr":{"value":{"tensor":{"floatVal":[… "doubleVal":[],"intVal":[],"stringVal":[],"scomplexVal":[],"int64Val":[],"boolVal":[],"uint32Val":[],"uint64Val":[],"dtype":1,"tensorShape":{"dim":[{"size":"128"}]}}},"dtype":{"type":1}},"name":"MobilenetV1/MobilenetV1/Conv2d_12_depthwise/BatchNorm/batchnorm/mul","op":"Const"},{"input":[],"attr":{"value":{"tensor":{"floatVal":[… "doubleVal":[],"intVal":[],"stringVal":[],"scomplexVal":[],"int64Val":[],"boolVal":[],"uint32Val":[],"uint64Val":[],"dtype":1,"tensorShape":{"dim":[{"size":"128"}]}}},"dtype":{"type":1}},"name":"MobilenetV1/MobilenetV1/Conv2d_12_depthwise/BatchNorm/batchnorm/sub","op":"Const"},{"input":[],"attr":{"value":{"tensor":{"floatVal":[],"doubleVal":[],"intVal":[],"stringVal":[],"scomplexVal":[],"int64Val":[],"boolVal":[],"uint32Val":[],"uint64Val":[],"dtype":1,"tensorShape":{"dim":[{"size":"1"},{"size":"1"},{"size":"128"},{"size":"256"}]}}},"dtype":{"type":1}},"name":"MobilenetV1/Conv2d_12_pointwise/weights","op":"Const"},{"input":[],"attr":{"value":{"tensor":{"floatVal":[… "doubleVal":[],"intVal":[],"stringVal":[],"scomplexVal":[],"int64Val":[],"boolVal":[],"uint32Val":[],"uint64Val":[],"dtype":1,"tensorShape":{"dim":[{"size":"256"}]}}},"dtype":{"type":1}},"name":"MobilenetV1/MobilenetV1/Conv2d_12_pointwise/BatchNorm/batchnorm/mul","op":"Const"},{"input":[],"attr":{"value":{"tensor":{"floatVal":[… "doubleVal":[],"intVal":[],"stringVal":[],"scomplexVal":[],"int64Val":[],"boolVal":[],"uint32Val":[],"uint64Val":[],"dtype":1,"tensorShape":{"dim":[{"size":"256"}]}}},"dtype":{"type":1}},"name":"MobilenetV1/MobilenetV1/Conv2d_12_pointwise/BatchNorm/batchnorm/sub","op":"Const"},{"input":[],"attr":{"value":{"tensor":{"floatVal":[],"doubleVal":[],"intVal":[],"stringVal":[],"scomplexVal":[],"int64Val":[],"boolVal":[],"uint32Val":[],"uint64Val":[],"dtype":1,"tensorShape":{"dim":[{"size":"3"},{"size":"3"},{"size":"256"},{"size":"1"}]}}},"dtype":{"type":1}},"name":"MobilenetV1/Conv2d_13_depthwise/depthwise_weights","op":"Const"},{"input":[],"attr":{"value":{"tensor":{"floatVal":[… "doubleVal":[],"intVal":[],"stringVal":[],"scomplexVal":[],"int64Val":[],"boolVal":[],"uint32Val":[],"uint64Val":[],"dtype":1,"tensorShape":{"dim":[{"size":"256"}]}}},"dtype":{"type":1}},"name":"MobilenetV1/MobilenetV1/Conv2d_13_depthwise/BatchNorm/batchnorm/mul","op":"Const"},{"input":[],"attr":{"dtype":{"type":1},"value":{"tensor":{"floatVal":[… "doubleVal":[],"intVal":[],"stringVal":[],"scomplexVal":[],"int64Val":[],"boolVal":[],"uint32Val":[],"uint64Val":[],"dtype":1,"tensorShape":{"dim":[{"size":"256"}]}}}},"name":"MobilenetV1/MobilenetV1/Conv2d_13_depthwise/BatchNorm/batchnorm/sub","op":"Const"},{"input":[],"attr":{"value":{"tensor":{"floatVal":[],"doubleVal":[],"intVal":[],"stringVal":[],"scomplexVal":[],"int64Val":[],"boolVal":[],"uint32Val":[],"uint64Val":[],"dtype":1,"tensorShape":{"dim":[{"size":"1"},{"size":"1"},{"size":"256"},{"size":"256"}]}}},"dtype":{"type":1}},"name":"MobilenetV1/Conv2d_13_pointwise/weights","op":"Const"},{"input":[],"attr":{"value":{"tensor":{"floatVal":[… "doubleVal":[],"intVal":[],"stringVal":[],"scomplexVal":[],"int64Val":[],"boolVal":[],"uint32Val":[],"uint64Val":[],"dtype":1,"tensorShape":{"dim":[{"size":"256"}]}}},"dtype":{"type":1}},"name":"MobilenetV1/MobilenetV1/Conv2d_13_pointwise/BatchNorm/batchnorm/mul","op":"Const"},{"input":[],"attr":{"dtype":{"type":1},"value":{"tensor":{"floatVal":[… "doubleVal":[],"intVal":[],"stringVal":[],"scomplexVal":[],"int64Val":[],"boolVal":[],"uint32Val":[],"uint64Val":[],"dtype":1,"tensorShape":{"dim":[{"size":"256"}]}}}},"name":"MobilenetV1/MobilenetV1/Conv2d_13_pointwise/BatchNorm/batchnorm/sub","op":"Const"},{"input":[],"attr":{"value":{"tensor":{"floatVal":[],"doubleVal":[],"intVal":[],"stringVal":[],"scomplexVal":[],"int64Val":[],"boolVal":[],"uint32Val":[],"uint64Val":[],"dtype":1,"tensorShape":{"dim":[{"size":"1"},{"size":"1"},{"size":"256"},{"size":"1001"}]}}},"dtype":{"type":1}},"name":"MobilenetV1/Logits/Conv2d_1c_1x1/weights","op":"Const"},{"input":[],"attr":{"value":{"tensor":{"floatVal":[],"doubleVal":[],"intVal":[],"stringVal":[],"scomplexVal":[],"int64Val":[],"boolVal":[],"uint32Val":[],"uint64Val":[],"dtype":1,"tensorShape":{"dim":[{"size":"1001"}]}}},"dtype":{"type":1}},"name":"MobilenetV1/Logits/Conv2d_1c_1x1/biases","op":"Const"},{"input":[],"attr":{"value":{"tensor":{"floatVal":[],"doubleVal":[],"intVal":[],"stringVal":[],"scomplexVal":[],"int64Val":[],"boolVal":[],"uint32Val":[],"uint64Val":[],"dtype":3,"tensorShape":{"dim":[{"size":"2"}]}}},"dtype":{"type":3}},"name":"MobilenetV1/Predictions/Reshape/shape","op":"Const"},{"input":[],"attr":{"dtype":{"type":1},"value":{"tensor":{"floatVal":[],"doubleVal":[],"intVal":[],"stringVal":[],"scomplexVal":[],"int64Val":[],"boolVal":[],"uint32Val":[],"uint64Val":[],"dtype":1,"tensorShape":{"dim":[{"size":"1001"},{"size":"424"}]}}}},"name":"final_training_ops/weights/final_weights","op":"Const"},{"input":[],"attr":{"value":{"tensor":{"floatVal":[],"doubleVal":[],"intVal":[],"stringVal":[],"scomplexVal":[],"int64Val":[],"boolVal":[],"uint32Val":[],"uint64Val":[],"dtype":1,"tensorShape":{"dim":[{"size":"424"}]}}},"dtype":{"type":1}},"name":"final_training_ops/biases/final_biases","op":"Const"},{"input":["input","MobilenetV1/Conv2d_0/weights"],"attr":{"dilations":{"list":{"s":[],"i":["1","1","1","1"],"f":[],"b":[],"type":[],"shape":[],"tensor":[],"func":[]}},"T":{"type":1},"strides":{"list":{"s":[],"i":["1","2","2","1"],"f":[],"b":[],"type":[],"shape":[],"tensor":[],"func":[]}},"data_format":{"s":[78,72,87,67]},"use_cudnn_on_gpu":{"b":true},"padding":{"s":[83,65,77,69]}},"name":"MobilenetV1/MobilenetV1/Conv2d_0/convolution","op":"Conv2D"},{"input":["MobilenetV1/MobilenetV1/Conv2d_0/convolution","MobilenetV1/MobilenetV1/Conv2d_0/BatchNorm/batchnorm/mul"],"attr":{"T":{"type":1}},"name":"MobilenetV1/MobilenetV1/Conv2d_0/BatchNorm/batchnorm/mul_1","op":"Mul"},{"input":["MobilenetV1/MobilenetV1/Conv2d_0/BatchNorm/batchnorm/mul_1","MobilenetV1/MobilenetV1/Conv2d_0/BatchNorm/batchnorm/sub"],"attr":{"T":{"type":1}},"name":"MobilenetV1/MobilenetV1/Conv2d_0/BatchNorm/batchnorm/add_1","op":"Add"},{"input":["MobilenetV1/MobilenetV1/Conv2d_0/BatchNorm/batchnorm/add_1"],"attr":{"T":{"type":1}},"name":"MobilenetV1/MobilenetV1/Conv2d_0/Relu6","op":"Relu6"},{"input":["MobilenetV1/MobilenetV1/Conv2d_0/Relu6","MobilenetV1/Conv2d_1_depthwise/depthwise_weights"],"attr":{"dilations":{"list":{"s":[],"i":["1","1","1","1"],"f":[],"b":[],"type":[],"shape":[],"tensor":[],"func":[]}},"padding":{"s":[83,65,77,69]},"T":{"type":1},"strides":{"list":{"s":[],"i":["1","1","1","1"],"f":[],"b":[],"type":[],"shape":[],"tensor":[],"func":[]}},"data_format":{"s":[78,72,87,67]}},"name":"MobilenetV1/MobilenetV1/Conv2d_1_depthwise/depthwise","op":"DepthwiseConv2dNative"},{"input":["MobilenetV1/MobilenetV1/Conv2d_1_depthwise/depthwise","MobilenetV1/MobilenetV1/Conv2d_1_depthwise/BatchNorm/batchnorm/mul"],"attr":{"T":{"type":1}},"name":"MobilenetV1/MobilenetV1/Conv2d_1_depthwise/BatchNorm/batchnorm/mul_1","op":"Mul"},{"input":["MobilenetV1/MobilenetV1/Conv2d_1_depthwise/BatchNorm/batchnorm/mul_1","MobilenetV1/MobilenetV1/Conv2d_1_depthwise/BatchNorm/batchnorm/sub"],"attr":{"T":{"type":1}},"name":"MobilenetV1/MobilenetV1/Conv2d_1_depthwise/BatchNorm/batchnorm/add_1","op":"Add"},{"input":["MobilenetV1/MobilenetV1/Conv2d_1_depthwise/BatchNorm/batchnorm/add_1"],"attr":{"T":{"type":1}},"name":"MobilenetV1/MobilenetV1/Conv2d_1_depthwise/Relu6","op":"Relu6"},{"input":["MobilenetV1/MobilenetV1/Conv2d_1_depthwise/Relu6","MobilenetV1/Conv2d_1_pointwise/weights"],"attr":{"dilations":{"list":{"s":[],"i":["1","1","1","1"],"f":[],"b":[],"type":[],"shape":[],"tensor":[],"func":[]}},"T":{"type":1},"strides":{"list":{"s":[],"i":["1","1","1","1"],"f":[],"b":[],"type":[],"shape":[],"tensor":[],"func":[]}},"data_format":{"s":[78,72,87,67]},"use_cudnn_on_gpu":{"b":true},"padding":{"s":[83,65,77,69]}},"name":"MobilenetV1/MobilenetV1/Conv2d_1_pointwise/convolution","op":"Conv2D"},{"input":["MobilenetV1/MobilenetV1/Conv2d_1_pointwise/convolution","MobilenetV1/MobilenetV1/Conv2d_1_pointwise/BatchNorm/batchnorm/mul"],"attr":{"T":{"type":1}},"name":"MobilenetV1/MobilenetV1/Conv2d_1_pointwise/BatchNorm/batchnorm/mul_1","op":"Mul"},{"input":["MobilenetV1/MobilenetV1/Conv2d_1_pointwise/BatchNorm/batchnorm/mul_1","MobilenetV1/MobilenetV1/Conv2d_1_pointwise/BatchNorm/batchnorm/sub"],"attr":{"T":{"type":1}},"name":"MobilenetV1/MobilenetV1/Conv2d_1_pointwise/BatchNorm/batchnorm/add_1","op":"Add"},{"input":["MobilenetV1/MobilenetV1/Conv2d_1_pointwise/BatchNorm/batchnorm/add_1"],"attr":{"T":{"type":1}},"name":"MobilenetV1/MobilenetV1/Conv2d_1_pointwise/Relu6","op":"Relu6"},{"input":["MobilenetV1/MobilenetV1/Conv2d_1_pointwise/Relu6","MobilenetV1/Conv2d_2_depthwise/depthwise_weights"],"attr":{"padding":{"s":[83,65,77,69]},"dilations":{"list":{"s":[],"i":["1","1","1","1"],"f":[],"b":[],"type":[],"shape":[],"tensor":[],"func":[]}},"T":{"type":1},"strides":{"list":{"s":[],"i":["1","2","2","1"],"f":[],"b":[],"type":[],"shape":[],"tensor":[],"func":[]}},"data_format":{"s":[78,72,87,67]}},"name":"MobilenetV1/MobilenetV1/Conv2d_2_depthwise/depthwise","op":"DepthwiseConv2dNative"},{"input":["MobilenetV1/MobilenetV1/Conv2d_2_depthwise/depthwise","MobilenetV1/MobilenetV1/Conv2d_2_depthwise/BatchNorm/batchnorm/mul"],"attr":{"T":{"type":1}},"name":"MobilenetV1/MobilenetV1/Conv2d_2_depthwise/BatchNorm/batchnorm/mul_1","op":"Mul"},{"input":["MobilenetV1/MobilenetV1/Conv2d_2_depthwise/BatchNorm/batchnorm/mul_1","MobilenetV1/MobilenetV1/Conv2d_2_depthwise/BatchNorm/batchnorm/sub"],"attr":{"T":{"type":1}},"name":"MobilenetV1/MobilenetV1/Conv2d_2_depthwise/BatchNorm/batchnorm/add_1","op":"Add"},{"input":["MobilenetV1/MobilenetV1/Conv2d_2_depthwise/BatchNorm/batchnorm/add_1"],"attr":{"T":{"type":1}},"name":"MobilenetV1/MobilenetV1/Conv2d_2_depthwise/Relu6","op":"Relu6"},{"input":["MobilenetV1/MobilenetV1/Conv2d_2_depthwise/Relu6","MobilenetV1/Conv2d_2_pointwise/weights"],"attr":{"padding":{"s":[83,65,77,69]},"dilations":{"list":{"s":[],"i":["1","1","1","1"],"f":[],"b":[],"type":[],"shape":[],"tensor":[],"func":[]}},"T":{"type":1},"strides":{"list":{"s":[],"i":["1","1","1","1"],"f":[],"b":[],"type":[],"shape":[],"tensor":[],"func":[]}},"data_format":{"s":[78,72,87,67]},"use_cudnn_on_gpu":{"b":true}},"name":"MobilenetV1/MobilenetV1/Conv2d_2_pointwise/convolution","op":"Conv2D"},{"input":["MobilenetV1/MobilenetV1/Conv2d_2_pointwise/convolution","MobilenetV1/MobilenetV1/Conv2d_2_pointwise/BatchNorm/batchnorm/mul"],"attr":{"T":{"type":1}},"name":"MobilenetV1/MobilenetV1/Conv2d_2_pointwise/BatchNorm/batchnorm/mul_1","op":"Mul"},{"input":["MobilenetV1/MobilenetV1/Conv2d_2_pointwise/BatchNorm/batchnorm/mul_1","MobilenetV1/MobilenetV1/Conv2d_2_pointwise/BatchNorm/batchnorm/sub"],"attr":{"T":{"type":1}},"name":"MobilenetV1/MobilenetV1/Conv2d_2_pointwise/BatchNorm/batchnorm/add_1","op":"Add"},{"input":["MobilenetV1/MobilenetV1/Conv2d_2_pointwise/BatchNorm/batchnorm/add_1"],"attr":{"T":{"type":1}},"name":"MobilenetV1/MobilenetV1/Conv2d_2_pointwise/Relu6","op":"Relu6"},{"input":["MobilenetV1/MobilenetV1/Conv2d_2_pointwise/Relu6","MobilenetV1/Conv2d_3_depthwise/depthwise_weights"],"attr":{"dilations":{"list":{"s":[],"i":["1","1","1","1"],"f":[],"b":[],"type":[],"shape":[],"tensor":[],"func":[]}},"padding":{"s":[83,65,77,69]},"T":{"type":1},"strides":{"list":{"s":[],"i":["1","1","1","1"],"f":[],"b":[],"type":[],"shape":[],"tensor":[],"func":[]}},"data_format":{"s":[78,72,87,67]}},"name":"MobilenetV1/MobilenetV1/Conv2d_3_depthwise/depthwise","op":"DepthwiseConv2dNative"},{"input":["MobilenetV1/MobilenetV1/Conv2d_3_depthwise/depthwise","MobilenetV1/MobilenetV1/Conv2d_3_depthwise/BatchNorm/batchnorm/mul"],"attr":{"T":{"type":1}},"name":"MobilenetV1/MobilenetV1/Conv2d_3_depthwise/BatchNorm/batchnorm/mul_1","op":"Mul"},{"input":["MobilenetV1/MobilenetV1/Conv2d_3_depthwise/BatchNorm/batchnorm/mul_1","MobilenetV1/MobilenetV1/Conv2d_3_depthwise/BatchNorm/batchnorm/sub"],"attr":{"T":{"type":1}},"name":"MobilenetV1/MobilenetV1/Conv2d_3_depthwise/BatchNorm/batchnorm/add_1","op":"Add"},{"input":["MobilenetV1/MobilenetV1/Conv2d_3_depthwise/BatchNorm/batchnorm/add_1"],"attr":{"T":{"type":1}},"name":"MobilenetV1/MobilenetV1/Conv2d_3_depthwise/Relu6","op":"Relu6"},{"input":["MobilenetV1/MobilenetV1/Conv2d_3_depthwise/Relu6","MobilenetV1/Conv2d_3_pointwise/weights"],"attr":{"dilations":{"list":{"s":[],"i":["1","1","1","1"],"f":[],"b":[],"type":[],"shape":[],"tensor":[],"func":[]}},"T":{"type":1},"data_format":{"s":[78,72,87,67]},"strides":{"list":{"s":[],"i":["1","1","1","1"],"f":[],"b":[],"type":[],"shape":[],"tensor":[],"func":[]}},"use_cudnn_on_gpu":{"b":true},"padding":{"s":[83,65,77,69]}},"name":"MobilenetV1/MobilenetV1/Conv2d_3_pointwise/convolution","op":"Conv2D"},{"input":["MobilenetV1/MobilenetV1/Conv2d_3_pointwise/convolution","MobilenetV1/MobilenetV1/Conv2d_3_pointwise/BatchNorm/batchnorm/mul"],"attr":{"T":{"type":1}},"name":"MobilenetV1/MobilenetV1/Conv2d_3_pointwise/BatchNorm/batchnorm/mul_1","op":"Mul"},{"input":["MobilenetV1/MobilenetV1/Conv2d_3_pointwise/BatchNorm/batchnorm/mul_1","MobilenetV1/MobilenetV1/Conv2d_3_pointwise/BatchNorm/batchnorm/sub"],"attr":{"T":{"type":1}},"name":"MobilenetV1/MobilenetV1/Conv2d_3_pointwise/BatchNorm/batchnorm/add_1","op":"Add"},{"input":["MobilenetV1/MobilenetV1/Conv2d_3_pointwise/BatchNorm/batchnorm/add_1"],"attr":{"T":{"type":1}},"name":"MobilenetV1/MobilenetV1/Conv2d_3_pointwise/Relu6","op":"Relu6"},{"input":["MobilenetV1/MobilenetV1/Conv2d_3_pointwise/Relu6","MobilenetV1/Conv2d_4_depthwise/depthwise_weights"],"attr":{"strides":{"list":{"s":[],"i":["1","2","2","1"],"f":[],"b":[],"type":[],"shape":[],"tensor":[],"func":[]}},"data_format":{"s":[78,72,87,67]},"padding":{"s":[83,65,77,69]},"dilations":{"list":{"s":[],"i":["1","1","1","1"],"f":[],"b":[],"type":[],"shape":[],"tensor":[],"func":[]}},"T":{"type":1}},"name":"MobilenetV1/MobilenetV1/Conv2d_4_depthwise/depthwise","op":"DepthwiseConv2dNative"},{"input":["MobilenetV1/MobilenetV1/Conv2d_4_depthwise/depthwise","MobilenetV1/MobilenetV1/Conv2d_4_depthwise/BatchNorm/batchnorm/mul"],"attr":{"T":{"type":1}},"name":"MobilenetV1/MobilenetV1/Conv2d_4_depthwise/BatchNorm/batchnorm/mul_1","op":"Mul"},{"input":["MobilenetV1/MobilenetV1/Conv2d_4_depthwise/BatchNorm/batchnorm/mul_1","MobilenetV1/MobilenetV1/Conv2d_4_depthwise/BatchNorm/batchnorm/sub"],"attr":{"T":{"type":1}},"name":"MobilenetV1/MobilenetV1/Conv2d_4_depthwise/BatchNorm/batchnorm/add_1","op":"Add"},{"input":["MobilenetV1/MobilenetV1/Conv2d_4_depthwise/BatchNorm/batchnorm/add_1"],"attr":{"T":{"type":1}},"name":"MobilenetV1/MobilenetV1/Conv2d_4_depthwise/Relu6","op":"Relu6"},{"input":["MobilenetV1/MobilenetV1/Conv2d_4_depthwise/Relu6","MobilenetV1/Conv2d_4_pointwise/weights"],"attr":{"T":{"type":1},"strides":{"list":{"s":[],"i":["1","1","1","1"],"f":[],"b":[],"type":[],"shape":[],"tensor":[],"func":[]}},"data_format":{"s":[78,72,87,67]},"use_cudnn_on_gpu":{"b":true},"padding":{"s":[83,65,77,69]},"dilations":{"list":{"s":[],"i":["1","1","1","1"],"f":[],"b":[],"type":[],"shape":[],"tensor":[],"func":[]}}},"name":"MobilenetV1/MobilenetV1/Conv2d_4_pointwise/convolution","op":"Conv2D"},{"input":["MobilenetV1/MobilenetV1/Conv2d_4_pointwise/convolution","MobilenetV1/MobilenetV1/Conv2d_4_pointwise/BatchNorm/batchnorm/mul"],"attr":{"T":{"type":1}},"name":"MobilenetV1/MobilenetV1/Conv2d_4_pointwise/BatchNorm/batchnorm/mul_1","op":"Mul"},{"input":["MobilenetV1/MobilenetV1/Conv2d_4_pointwise/BatchNorm/batchnorm/mul_1","MobilenetV1/MobilenetV1/Conv2d_4_pointwise/BatchNorm/batchnorm/sub"],"attr":{"T":{"type":1}},"name":"MobilenetV1/MobilenetV1/Conv2d_4_pointwise/BatchNorm/batchnorm/add_1","op":"Add"},{"input":["MobilenetV1/MobilenetV1/Conv2d_4_pointwise/BatchNorm/batchnorm/add_1"],"attr":{"T":{"type":1}},"name":"MobilenetV1/MobilenetV1/Conv2d_4_pointwise/Relu6","op":"Relu6"},{"input":["MobilenetV1/MobilenetV1/Conv2d_4_pointwise/Relu6","MobilenetV1/Conv2d_5_depthwise/depthwise_weights"],"attr":{"padding":{"s":[83,65,77,69]},"dilations":{"list":{"s":[],"i":["1","1","1","1"],"f":[],"b":[],"type":[],"shape":[],"tensor":[],"func":[]}},"T":{"type":1},"strides":{"list":{"s":[],"i":["1","1","1","1"],"f":[],"b":[],"type":[],"shape":[],"tensor":[],"func":[]}},"data_format":{"s":[78,72,87,67]}},"name":"MobilenetV1/MobilenetV1/Conv2d_5_depthwise/depthwise","op":"DepthwiseConv2dNative"},{"input":["MobilenetV1/MobilenetV1/Conv2d_5_depthwise/depthwise","MobilenetV1/MobilenetV1/Conv2d_5_depthwise/BatchNorm/batchnorm/mul"],"attr":{"T":{"type":1}},"name":"MobilenetV1/MobilenetV1/Conv2d_5_depthwise/BatchNorm/batchnorm/mul_1","op":"Mul"},{"input":["MobilenetV1/MobilenetV1/Conv2d_5_depthwise/BatchNorm/batchnorm/mul_1","MobilenetV1/MobilenetV1/Conv2d_5_depthwise/BatchNorm/batchnorm/sub"],"attr":{"T":{"type":1}},"name":"MobilenetV1/MobilenetV1/Conv2d_5_depthwise/BatchNorm/batchnorm/add_1","op":"Add"},{"input":["MobilenetV1/MobilenetV1/Conv2d_5_depthwise/BatchNorm/batchnorm/add_1"],"attr":{"T":{"type":1}},"name":"MobilenetV1/MobilenetV1/Conv2d_5_depthwise/Relu6","op":"Relu6"},{"input":["MobilenetV1/MobilenetV1/Conv2d_5_depthwise/Relu6","MobilenetV1/Conv2d_5_pointwise/weights"],"attr":{"padding":{"s":[83,65,77,69]},"dilations":{"list":{"s":[],"i":["1","1","1","1"],"f":[],"b":[],"type":[],"shape":[],"tensor":[],"func":[]}},"T":{"type":1},"strides":{"list":{"s":[],"i":["1","1","1","1"],"f":[],"b":[],"type":[],"shape":[],"tensor":[],"func":[]}},"data_format":{"s":[78,72,87,67]},"use_cudnn_on_gpu":{"b":true}},"name":"MobilenetV1/MobilenetV1/Conv2d_5_pointwise/convolution","op":"Conv2D"},{"input":["MobilenetV1/MobilenetV1/Conv2d_5_pointwise/convolution","MobilenetV1/MobilenetV1/Conv2d_5_pointwise/BatchNorm/batchnorm/mul"],"attr":{"T":{"type":1}},"name":"MobilenetV1/MobilenetV1/Conv2d_5_pointwise/BatchNorm/batchnorm/mul_1","op":"Mul"},{"input":["MobilenetV1/MobilenetV1/Conv2d_5_pointwise/BatchNorm/batchnorm/mul_1","MobilenetV1/MobilenetV1/Conv2d_5_pointwise/BatchNorm/batchnorm/sub"],"attr":{"T":{"type":1}},"name":"MobilenetV1/MobilenetV1/Conv2d_5_pointwise/BatchNorm/batchnorm/add_1","op":"Add"},{"input":["MobilenetV1/MobilenetV1/Conv2d_5_pointwise/BatchNorm/batchnorm/add_1"],"attr":{"T":{"type":1}},"name":"MobilenetV1/MobilenetV1/Conv2d_5_pointwise/Relu6","op":"Relu6"},{"input":["MobilenetV1/MobilenetV1/Conv2d_5_pointwise/Relu6","MobilenetV1/Conv2d_6_depthwise/depthwise_weights"],"attr":{"padding":{"s":[83,65,77,69]},"dilations":{"list":{"s":[],"i":["1","1","1","1"],"f":[],"b":[],"type":[],"shape":[],"tensor":[],"func":[]}},"T":{"type":1},"strides":{"list":{"s":[],"i":["1","2","2","1"],"f":[],"b":[],"type":[],"shape":[],"tensor":[],"func":[]}},"data_format":{"s":[78,72,87,67]}},"name":"MobilenetV1/MobilenetV1/Conv2d_6_depthwise/depthwise","op":"DepthwiseConv2dNative"},{"input":["MobilenetV1/MobilenetV1/Conv2d_6_depthwise/depthwise","MobilenetV1/MobilenetV1/Conv2d_6_depthwise/BatchNorm/batchnorm/mul"],"attr":{"T":{"type":1}},"name":"MobilenetV1/MobilenetV1/Conv2d_6_depthwise/BatchNorm/batchnorm/mul_1","op":"Mul"},{"input":["MobilenetV1/MobilenetV1/Conv2d_6_depthwise/BatchNorm/batchnorm/mul_1","MobilenetV1/MobilenetV1/Conv2d_6_depthwise/BatchNorm/batchnorm/sub"],"attr":{"T":{"type":1}},"name":"MobilenetV1/MobilenetV1/Conv2d_6_depthwise/BatchNorm/batchnorm/add_1","op":"Add"},{"input":["MobilenetV1/MobilenetV1/Conv2d_6_depthwise/BatchNorm/batchnorm/add_1"],"attr":{"T":{"type":1}},"name":"MobilenetV1/MobilenetV1/Conv2d_6_depthwise/Relu6","op":"Relu6"},{"input":["MobilenetV1/MobilenetV1/Conv2d_6_depthwise/Relu6","MobilenetV1/Conv2d_6_pointwise/weights"],"attr":{"dilations":{"list":{"s":[],"i":["1","1","1","1"],"f":[],"b":[],"type":[],"shape":[],"tensor":[],"func":[]}},"T":{"type":1},"strides":{"list":{"s":[],"i":["1","1","1","1"],"f":[],"b":[],"type":[],"shape":[],"tensor":[],"func":[]}},"data_format":{"s":[78,72,87,67]},"use_cudnn_on_gpu":{"b":true},"padding":{"s":[83,65,77,69]}},"name":"MobilenetV1/MobilenetV1/Conv2d_6_pointwise/convolution","op":"Conv2D"},{"input":["MobilenetV1/MobilenetV1/Conv2d_6_pointwise/convolution","MobilenetV1/MobilenetV1/Conv2d_6_pointwise/BatchNorm/batchnorm/mul"],"attr":{"T":{"type":1}},"name":"MobilenetV1/MobilenetV1/Conv2d_6_pointwise/BatchNorm/batchnorm/mul_1","op":"Mul"},{"input":["MobilenetV1/MobilenetV1/Conv2d_6_pointwise/BatchNorm/batchnorm/mul_1","MobilenetV1/MobilenetV1/Conv2d_6_pointwise/BatchNorm/batchnorm/sub"],"attr":{"T":{"type":1}},"name":"MobilenetV1/MobilenetV1/Conv2d_6_pointwise/BatchNorm/batchnorm/add_1","op":"Add"},{"input":["MobilenetV1/MobilenetV1/Conv2d_6_pointwise/BatchNorm/batchnorm/add_1"],"attr":{"T":{"type":1}},"name":"MobilenetV1/MobilenetV1/Conv2d_6_pointwise/Relu6","op":"Relu6"},{"input":["MobilenetV1/MobilenetV1/Conv2d_6_pointwise/Relu6","MobilenetV1/Conv2d_7_depthwise/depthwise_weights"],"attr":{"padding":{"s":[83,65,77,69]},"dilations":{"list":{"s":[],"i":["1","1","1","1"],"f":[],"b":[],"type":[],"shape":[],"tensor":[],"func":[]}},"T":{"type":1},"strides":{"list":{"s":[],"i":["1","1","1","1"],"f":[],"b":[],"type":[],"shape":[],"tensor":[],"func":[]}},"data_format":{"s":[78,72,87,67]}},"name":"MobilenetV1/MobilenetV1/Conv2d_7_depthwise/depthwise","op":"DepthwiseConv2dNative"},{"input":["MobilenetV1/MobilenetV1/Conv2d_7_depthwise/depthwise","MobilenetV1/MobilenetV1/Conv2d_7_depthwise/BatchNorm/batchnorm/mul"],"attr":{"T":{"type":1}},"name":"MobilenetV1/MobilenetV1/Conv2d_7_depthwise/BatchNorm/batchnorm/mul_1","op":"Mul"},{"input":["MobilenetV1/MobilenetV1/Conv2d_7_depthwise/BatchNorm/batchnorm/mul_1","MobilenetV1/MobilenetV1/Conv2d_7_depthwise/BatchNorm/batchnorm/sub"],"attr":{"T":{"type":1}},"name":"MobilenetV1/MobilenetV1/Conv2d_7_depthwise/BatchNorm/batchnorm/add_1","op":"Add"},{"input":["MobilenetV1/MobilenetV1/Conv2d_7_depthwise/BatchNorm/batchnorm/add_1"],"attr":{"T":{"type":1}},"name":"MobilenetV1/MobilenetV1/Conv2d_7_depthwise/Relu6","op":"Relu6"},{"input":["MobilenetV1/MobilenetV1/Conv2d_7_depthwise/Relu6","MobilenetV1/Conv2d_7_pointwise/weights"],"attr":{"dilations":{"list":{"s":[],"i":["1","1","1","1"],"f":[],"b":[],"type":[],"shape":[],"tensor":[],"func":[]}},"T":{"type":1},"strides":{"list":{"s":[],"i":["1","1","1","1"],"f":[],"b":[],"type":[],"shape":[],"tensor":[],"func":[]}},"data_format":{"s":[78,72,87,67]},"use_cudnn_on_gpu":{"b":true},"padding":{"s":[83,65,77,69]}},"name":"MobilenetV1/MobilenetV1/Conv2d_7_pointwise/convolution","op":"Conv2D"},{"input":["MobilenetV1/MobilenetV1/Conv2d_7_pointwise/convolution","MobilenetV1/MobilenetV1/Conv2d_7_pointwise/BatchNorm/batchnorm/mul"],"attr":{"T":{"type":1}},"name":"MobilenetV1/MobilenetV1/Conv2d_7_pointwise/BatchNorm/batchnorm/mul_1","op":"Mul"},{"input":["MobilenetV1/MobilenetV1/Conv2d_7_pointwise/BatchNorm/batchnorm/mul_1","MobilenetV1/MobilenetV1/Conv2d_7_pointwise/BatchNorm/batchnorm/sub"],"attr":{"T":{"type":1}},"name":"MobilenetV1/MobilenetV1/Conv2d_7_pointwise/BatchNorm/batchnorm/add_1","op":"Add"},{"input":["MobilenetV1/MobilenetV1/Conv2d_7_pointwise/BatchNorm/batchnorm/add_1"],"attr":{"T":{"type":1}},"name":"MobilenetV1/MobilenetV1/Conv2d_7_pointwise/Relu6","op":"Relu6"},{"input":["MobilenetV1/MobilenetV1/Conv2d_7_pointwise/Relu6","MobilenetV1/Conv2d_8_depthwise/depthwise_weights"],"attr":{"T":{"type":1},"strides":{"list":{"s":[],"i":["1","1","1","1"],"f":[],"b":[],"type":[],"shape":[],"tensor":[],"func":[]}},"data_format":{"s":[78,72,87,67]},"padding":{"s":[83,65,77,69]},"dilations":{"list":{"s":[],"i":["1","1","1","1"],"f":[],"b":[],"type":[],"shape":[],"tensor":[],"func":[]}}},"name":"MobilenetV1/MobilenetV1/Conv2d_8_depthwise/depthwise","op":"DepthwiseConv2dNative"},{"input":["MobilenetV1/MobilenetV1/Conv2d_8_depthwise/depthwise","MobilenetV1/MobilenetV1/Conv2d_8_depthwise/BatchNorm/batchnorm/mul"],"attr":{"T":{"type":1}},"name":"MobilenetV1/MobilenetV1/Conv2d_8_depthwise/BatchNorm/batchnorm/mul_1","op":"Mul"},{"input":["MobilenetV1/MobilenetV1/Conv2d_8_depthwise/BatchNorm/batchnorm/mul_1","MobilenetV1/MobilenetV1/Conv2d_8_depthwise/BatchNorm/batchnorm/sub"],"attr":{"T":{"type":1}},"name":"MobilenetV1/MobilenetV1/Conv2d_8_depthwise/BatchNorm/batchnorm/add_1","op":"Add"},{"input":["MobilenetV1/MobilenetV1/Conv2d_8_depthwise/BatchNorm/batchnorm/add_1"],"attr":{"T":{"type":1}},"name":"MobilenetV1/MobilenetV1/Conv2d_8_depthwise/Relu6","op":"Relu6"},{"input":["MobilenetV1/MobilenetV1/Conv2d_8_depthwise/Relu6","MobilenetV1/Conv2d_8_pointwise/weights"],"attr":{"dilations":{"list":{"s":[],"i":["1","1","1","1"],"f":[],"b":[],"type":[],"shape":[],"tensor":[],"func":[]}},"T":{"type":1},"strides":{"list":{"s":[],"i":["1","1","1","1"],"f":[],"b":[],"type":[],"shape":[],"tensor":[],"func":[]}},"data_format":{"s":[78,72,87,67]},"use_cudnn_on_gpu":{"b":true},"padding":{"s":[83,65,77,69]}},"name":"MobilenetV1/MobilenetV1/Conv2d_8_pointwise/convolution","op":"Conv2D"},{"input":["MobilenetV1/MobilenetV1/Conv2d_8_pointwise/convolution","MobilenetV1/MobilenetV1/Conv2d_8_pointwise/BatchNorm/batchnorm/mul"],"attr":{"T":{"type":1}},"name":"MobilenetV1/MobilenetV1/Conv2d_8_pointwise/BatchNorm/batchnorm/mul_1","op":"Mul"},{"input":["MobilenetV1/MobilenetV1/Conv2d_8_pointwise/BatchNorm/batchnorm/mul_1","MobilenetV1/MobilenetV1/Conv2d_8_pointwise/BatchNorm/batchnorm/sub"],"attr":{"T":{"type":1}},"name":"MobilenetV1/MobilenetV1/Conv2d_8_pointwise/BatchNorm/batchnorm/add_1","op":"Add"},{"input":["MobilenetV1/MobilenetV1/Conv2d_8_pointwise/BatchNorm/batchnorm/add_1"],"attr":{"T":{"type":1}},"name":"MobilenetV1/MobilenetV1/Conv2d_8_pointwise/Relu6","op":"Relu6"},{"input":["MobilenetV1/MobilenetV1/Conv2d_8_pointwise/Relu6","MobilenetV1/Conv2d_9_depthwise/depthwise_weights"],"attr":{"dilations":{"list":{"s":[],"i":["1","1","1","1"],"f":[],"b":[],"type":[],"shape":[],"tensor":[],"func":[]}},"padding":{"s":[83,65,77,69]},"T":{"type":1},"strides":{"list":{"s":[],"i":["1","1","1","1"],"f":[],"b":[],"type":[],"shape":[],"tensor":[],"func":[]}},"data_format":{"s":[78,72,87,67]}},"name":"MobilenetV1/MobilenetV1/Conv2d_9_depthwise/depthwise","op":"DepthwiseConv2dNative"},{"input":["MobilenetV1/MobilenetV1/Conv2d_9_depthwise/depthwise","MobilenetV1/MobilenetV1/Conv2d_9_depthwise/BatchNorm/batchnorm/mul"],"attr":{"T":{"type":1}},"name":"MobilenetV1/MobilenetV1/Conv2d_9_depthwise/BatchNorm/batchnorm/mul_1","op":"Mul"},{"input":["MobilenetV1/MobilenetV1/Conv2d_9_depthwise/BatchNorm/batchnorm/mul_1","MobilenetV1/MobilenetV1/Conv2d_9_depthwise/BatchNorm/batchnorm/sub"],"attr":{"T":{"type":1}},"name":"MobilenetV1/MobilenetV1/Conv2d_9_depthwise/BatchNorm/batchnorm/add_1","op":"Add"},{"input":["MobilenetV1/MobilenetV1/Conv2d_9_depthwise/BatchNorm/batchnorm/add_1"],"attr":{"T":{"type":1}},"name":"MobilenetV1/MobilenetV1/Conv2d_9_depthwise/Relu6","op":"Relu6"},{"input":["MobilenetV1/MobilenetV1/Conv2d_9_depthwise/Relu6","MobilenetV1/Conv2d_9_pointwise/weights"],"attr":{"dilations":{"list":{"s":[],"i":["1","1","1","1"],"f":[],"b":[],"type":[],"shape":[],"tensor":[],"func":[]}},"T":{"type":1},"strides":{"list":{"s":[],"i":["1","1","1","1"],"f":[],"b":[],"type":[],"shape":[],"tensor":[],"func":[]}},"data_format":{"s":[78,72,87,67]},"use_cudnn_on_gpu":{"b":true},"padding":{"s":[83,65,77,69]}},"name":"MobilenetV1/MobilenetV1/Conv2d_9_pointwise/convolution","op":"Conv2D"},{"input":["MobilenetV1/MobilenetV1/Conv2d_9_pointwise/convolution","MobilenetV1/MobilenetV1/Conv2d_9_pointwise/BatchNorm/batchnorm/mul"],"attr":{"T":{"type":1}},"name":"MobilenetV1/MobilenetV1/Conv2d_9_pointwise/BatchNorm/batchnorm/mul_1","op":"Mul"},{"input":["MobilenetV1/MobilenetV1/Conv2d_9_pointwise/BatchNorm/batchnorm/mul_1","MobilenetV1/MobilenetV1/Conv2d_9_pointwise/BatchNorm/batchnorm/sub"],"attr":{"T":{"type":1}},"name":"MobilenetV1/MobilenetV1/Conv2d_9_pointwise/BatchNorm/batchnorm/add_1","op":"Add"},{"input":["MobilenetV1/MobilenetV1/Conv2d_9_pointwise/BatchNorm/batchnorm/add_1"],"attr":{"T":{"type":1}},"name":"MobilenetV1/MobilenetV1/Conv2d_9_pointwise/Relu6","op":"Relu6"},{"input":["MobilenetV1/MobilenetV1/Conv2d_9_pointwise/Relu6","MobilenetV1/Conv2d_10_depthwise/depthwise_weights"],"attr":{"T":{"type":1},"strides":{"list":{"s":[],"i":["1","1","1","1"],"f":[],"b":[],"type":[],"shape":[],"tensor":[],"func":[]}},"data_format":{"s":[78,72,87,67]},"dilations":{"list":{"s":[],"i":["1","1","1","1"],"f":[],"b":[],"type":[],"shape":[],"tensor":[],"func":[]}},"padding":{"s":[83,65,77,69]}},"name":"MobilenetV1/MobilenetV1/Conv2d_10_depthwise/depthwise","op":"DepthwiseConv2dNative"},{"input":["MobilenetV1/MobilenetV1/Conv2d_10_depthwise/depthwise","MobilenetV1/MobilenetV1/Conv2d_10_depthwise/BatchNorm/batchnorm/mul"],"attr":{"T":{"type":1}},"name":"MobilenetV1/MobilenetV1/Conv2d_10_depthwise/BatchNorm/batchnorm/mul_1","op":"Mul"},{"input":["MobilenetV1/MobilenetV1/Conv2d_10_depthwise/BatchNorm/batchnorm/mul_1","MobilenetV1/MobilenetV1/Conv2d_10_depthwise/BatchNorm/batchnorm/sub"],"attr":{"T":{"type":1}},"name":"MobilenetV1/MobilenetV1/Conv2d_10_depthwise/BatchNorm/batchnorm/add_1","op":"Add"},{"input":["MobilenetV1/MobilenetV1/Conv2d_10_depthwise/BatchNorm/batchnorm/add_1"],"attr":{"T":{"type":1}},"name":"MobilenetV1/MobilenetV1/Conv2d_10_depthwise/Relu6","op":"Relu6"},{"input":["MobilenetV1/MobilenetV1/Conv2d_10_depthwise/Relu6","MobilenetV1/Conv2d_10_pointwise/weights"],"attr":{"padding":{"s":[83,65,77,69]},"dilations":{"list":{"s":[],"i":["1","1","1","1"],"f":[],"b":[],"type":[],"shape":[],"tensor":[],"func":[]}},"T":{"type":1},"strides":{"list":{"s":[],"i":["1","1","1","1"],"f":[],"b":[],"type":[],"shape":[],"tensor":[],"func":[]}},"data_format":{"s":[78,72,87,67]},"use_cudnn_on_gpu":{"b":true}},"name":"MobilenetV1/MobilenetV1/Conv2d_10_pointwise/convolution","op":"Conv2D"},{"input":["MobilenetV1/MobilenetV1/Conv2d_10_pointwise/convolution","MobilenetV1/MobilenetV1/Conv2d_10_pointwise/BatchNorm/batchnorm/mul"],"attr":{"T":{"type":1}},"name":"MobilenetV1/MobilenetV1/Conv2d_10_pointwise/BatchNorm/batchnorm/mul_1","op":"Mul"},{"input":["MobilenetV1/MobilenetV1/Conv2d_10_pointwise/BatchNorm/batchnorm/mul_1","MobilenetV1/MobilenetV1/Conv2d_10_pointwise/BatchNorm/batchnorm/sub"],"attr":{"T":{"type":1}},"name":"MobilenetV1/MobilenetV1/Conv2d_10_pointwise/BatchNorm/batchnorm/add_1","op":"Add"},{"input":["MobilenetV1/MobilenetV1/Conv2d_10_pointwise/BatchNorm/batchnorm/add_1"],"attr":{"T":{"type":1}},"name":"MobilenetV1/MobilenetV1/Conv2d_10_pointwise/Relu6","op":"Relu6"},{"input":["MobilenetV1/MobilenetV1/Conv2d_10_pointwise/Relu6","MobilenetV1/Conv2d_11_depthwise/depthwise_weights"],"attr":{"dilations":{"list":{"s":[],"i":["1","1","1","1"],"f":[],"b":[],"type":[],"shape":[],"tensor":[],"func":[]}},"padding":{"s":[83,65,77,69]},"T":{"type":1},"strides":{"list":{"s":[],"i":["1","1","1","1"],"f":[],"b":[],"type":[],"shape":[],"tensor":[],"func":[]}},"data_format":{"s":[78,72,87,67]}},"name":"MobilenetV1/MobilenetV1/Conv2d_11_depthwise/depthwise","op":"DepthwiseConv2dNative"},{"input":["MobilenetV1/MobilenetV1/Conv2d_11_depthwise/depthwise","MobilenetV1/MobilenetV1/Conv2d_11_depthwise/BatchNorm/batchnorm/mul"],"attr":{"T":{"type":1}},"name":"MobilenetV1/MobilenetV1/Conv2d_11_depthwise/BatchNorm/batchnorm/mul_1","op":"Mul"},{"input":["MobilenetV1/MobilenetV1/Conv2d_11_depthwise/BatchNorm/batchnorm/mul_1","MobilenetV1/MobilenetV1/Conv2d_11_depthwise/BatchNorm/batchnorm/sub"],"attr":{"T":{"type":1}},"name":"MobilenetV1/MobilenetV1/Conv2d_11_depthwise/BatchNorm/batchnorm/add_1","op":"Add"},{"input":["MobilenetV1/MobilenetV1/Conv2d_11_depthwise/BatchNorm/batchnorm/add_1"],"attr":{"T":{"type":1}},"name":"MobilenetV1/MobilenetV1/Conv2d_11_depthwise/Relu6","op":"Relu6"},{"input":["MobilenetV1/MobilenetV1/Conv2d_11_depthwise/Relu6","MobilenetV1/Conv2d_11_pointwise/weights"],"attr":{"padding":{"s":[83,65,77,69]},"dilations":{"list":{"s":[],"i":["1","1","1","1"],"f":[],"b":[],"type":[],"shape":[],"tensor":[],"func":[]}},"T":{"type":1},"strides":{"list":{"s":[],"i":["1","1","1","1"],"f":[],"b":[],"type":[],"shape":[],"tensor":[],"func":[]}},"data_format":{"s":[78,72,87,67]},"use_cudnn_on_gpu":{"b":true}},"name":"MobilenetV1/MobilenetV1/Conv2d_11_pointwise/convolution","op":"Conv2D"},{"input":["MobilenetV1/MobilenetV1/Conv2d_11_pointwise/convolution","MobilenetV1/MobilenetV1/Conv2d_11_pointwise/BatchNorm/batchnorm/mul"],"attr":{"T":{"type":1}},"name":"MobilenetV1/MobilenetV1/Conv2d_11_pointwise/BatchNorm/batchnorm/mul_1","op":"Mul"},{"input":["MobilenetV1/MobilenetV1/Conv2d_11_pointwise/BatchNorm/batchnorm/mul_1","MobilenetV1/MobilenetV1/Conv2d_11_pointwise/BatchNorm/batchnorm/sub"],"attr":{"T":{"type":1}},"name":"MobilenetV1/MobilenetV1/Conv2d_11_pointwise/BatchNorm/batchnorm/add_1","op":"Add"},{"input":["MobilenetV1/MobilenetV1/Conv2d_11_pointwise/BatchNorm/batchnorm/add_1"],"attr":{"T":{"type":1}},"name":"MobilenetV1/MobilenetV1/Conv2d_11_pointwise/Relu6","op":"Relu6"},{"input":["MobilenetV1/MobilenetV1/Conv2d_11_pointwise/Relu6","MobilenetV1/Conv2d_12_depthwise/depthwise_weights"],"attr":{"strides":{"list":{"s":[],"i":["1","2","2","1"],"f":[],"b":[],"type":[],"shape":[],"tensor":[],"func":[]}},"data_format":{"s":[78,72,87,67]},"dilations":{"list":{"s":[],"i":["1","1","1","1"],"f":[],"b":[],"type":[],"shape":[],"tensor":[],"func":[]}},"padding":{"s":[83,65,77,69]},"T":{"type":1}},"name":"MobilenetV1/MobilenetV1/Conv2d_12_depthwise/depthwise","op":"DepthwiseConv2dNative"},{"input":["MobilenetV1/MobilenetV1/Conv2d_12_depthwise/depthwise","MobilenetV1/MobilenetV1/Conv2d_12_depthwise/BatchNorm/batchnorm/mul"],"attr":{"T":{"type":1}},"name":"MobilenetV1/MobilenetV1/Conv2d_12_depthwise/BatchNorm/batchnorm/mul_1","op":"Mul"},{"input":["MobilenetV1/MobilenetV1/Conv2d_12_depthwise/BatchNorm/batchnorm/mul_1","MobilenetV1/MobilenetV1/Conv2d_12_depthwise/BatchNorm/batchnorm/sub"],"attr":{"T":{"type":1}},"name":"MobilenetV1/MobilenetV1/Conv2d_12_depthwise/BatchNorm/batchnorm/add_1","op":"Add"},{"input":["MobilenetV1/MobilenetV1/Conv2d_12_depthwise/BatchNorm/batchnorm/add_1"],"attr":{"T":{"type":1}},"name":"MobilenetV1/MobilenetV1/Conv2d_12_depthwise/Relu6","op":"Relu6"},{"input":["MobilenetV1/MobilenetV1/Conv2d_12_depthwise/Relu6","MobilenetV1/Conv2d_12_pointwise/weights"],"attr":{"dilations":{"list":{"s":[],"i":["1","1","1","1"],"f":[],"b":[],"type":[],"shape":[],"tensor":[],"func":[]}},"T":{"type":1},"data_format":{"s":[78,72,87,67]},"strides":{"list":{"s":[],"i":["1","1","1","1"],"f":[],"b":[],"type":[],"shape":[],"tensor":[],"func":[]}},"use_cudnn_on_gpu":{"b":true},"padding":{"s":[83,65,77,69]}},"name":"MobilenetV1/MobilenetV1/Conv2d_12_pointwise/convolution","op":"Conv2D"},{"input":["MobilenetV1/MobilenetV1/Conv2d_12_pointwise/convolution","MobilenetV1/MobilenetV1/Conv2d_12_pointwise/BatchNorm/batchnorm/mul"],"attr":{"T":{"type":1}},"name":"MobilenetV1/MobilenetV1/Conv2d_12_pointwise/BatchNorm/batchnorm/mul_1","op":"Mul"},{"input":["MobilenetV1/MobilenetV1/Conv2d_12_pointwise/BatchNorm/batchnorm/mul_1","MobilenetV1/MobilenetV1/Conv2d_12_pointwise/BatchNorm/batchnorm/sub"],"attr":{"T":{"type":1}},"name":"MobilenetV1/MobilenetV1/Conv2d_12_pointwise/BatchNorm/batchnorm/add_1","op":"Add"},{"input":["MobilenetV1/MobilenetV1/Conv2d_12_pointwise/BatchNorm/batchnorm/add_1"],"attr":{"T":{"type":1}},"name":"MobilenetV1/MobilenetV1/Conv2d_12_pointwise/Relu6","op":"Relu6"},{"input":["MobilenetV1/MobilenetV1/Conv2d_12_pointwise/Relu6","MobilenetV1/Conv2d_13_depthwise/depthwise_weights"],"attr":{"T":{"type":1},"strides":{"list":{"s":[],"i":["1","1","1","1"],"f":[],"b":[],"type":[],"shape":[],"tensor":[],"func":[]}},"data_format":{"s":[78,72,87,67]},"padding":{"s":[83,65,77,69]},"dilations":{"list":{"s":[],"i":["1","1","1","1"],"f":[],"b":[],"type":[],"shape":[],"tensor":[],"func":[]}}},"name":"MobilenetV1/MobilenetV1/Conv2d_13_depthwise/depthwise","op":"DepthwiseConv2dNative"},{"input":["MobilenetV1/MobilenetV1/Conv2d_13_depthwise/depthwise","MobilenetV1/MobilenetV1/Conv2d_13_depthwise/BatchNorm/batchnorm/mul"],"attr":{"T":{"type":1}},"name":"MobilenetV1/MobilenetV1/Conv2d_13_depthwise/BatchNorm/batchnorm/mul_1","op":"Mul"},{"input":["MobilenetV1/MobilenetV1/Conv2d_13_depthwise/BatchNorm/batchnorm/mul_1","MobilenetV1/MobilenetV1/Conv2d_13_depthwise/BatchNorm/batchnorm/sub"],"attr":{"T":{"type":1}},"name":"MobilenetV1/MobilenetV1/Conv2d_13_depthwise/BatchNorm/batchnorm/add_1","op":"Add"},{"input":["MobilenetV1/MobilenetV1/Conv2d_13_depthwise/BatchNorm/batchnorm/add_1"],"attr":{"T":{"type":1}},"name":"MobilenetV1/MobilenetV1/Conv2d_13_depthwise/Relu6","op":"Relu6"},{"input":["MobilenetV1/MobilenetV1/Conv2d_13_depthwise/Relu6","MobilenetV1/Conv2d_13_pointwise/weights"],"attr":{"padding":{"s":[83,65,77,69]},"dilations":{"list":{"s":[],"i":["1","1","1","1"],"f":[],"b":[],"type":[],"shape":[],"tensor":[],"func":[]}},"T":{"type":1},"data_format":{"s":[78,72,87,67]},"strides":{"list":{"s":[],"i":["1","1","1","1"],"f":[],"b":[],"type":[],"shape":[],"tensor":[],"func":[]}},"use_cudnn_on_gpu":{"b":true}},"name":"MobilenetV1/MobilenetV1/Conv2d_13_pointwise/convolution","op":"Conv2D"},{"input":["MobilenetV1/MobilenetV1/Conv2d_13_pointwise/convolution","MobilenetV1/MobilenetV1/Conv2d_13_pointwise/BatchNorm/batchnorm/mul"],"attr":{"T":{"type":1}},"name":"MobilenetV1/MobilenetV1/Conv2d_13_pointwise/BatchNorm/batchnorm/mul_1","op":"Mul"},{"input":["MobilenetV1/MobilenetV1/Conv2d_13_pointwise/BatchNorm/batchnorm/mul_1","MobilenetV1/MobilenetV1/Conv2d_13_pointwise/BatchNorm/batchnorm/sub"],"attr":{"T":{"type":1}},"name":"MobilenetV1/MobilenetV1/Conv2d_13_pointwise/BatchNorm/batchnorm/add_1","op":"Add"},{"input":["MobilenetV1/MobilenetV1/Conv2d_13_pointwise/BatchNorm/batchnorm/add_1"],"attr":{"T":{"type":1}},"name":"MobilenetV1/MobilenetV1/Conv2d_13_pointwise/Relu6","op":"Relu6"},{"input":["MobilenetV1/MobilenetV1/Conv2d_13_pointwise/Relu6"],"attr":{"ksize":{"list":{"s":[],"i":["1","7","7","1"],"f":[],"b":[],"type":[],"shape":[],"tensor":[],"func":[]}},"padding":{"s":[86,65,76,73,68]},"T":{"type":1},"strides":{"list":{"s":[],"i":["1","2","2","1"],"f":[],"b":[],"type":[],"shape":[],"tensor":[],"func":[]}},"data_format":{"s":[78,72,87,67]}},"name":"MobilenetV1/Logits/AvgPool_1a/AvgPool","op":"AvgPool"},{"input":["MobilenetV1/Logits/AvgPool_1a/AvgPool","MobilenetV1/Logits/Conv2d_1c_1x1/weights"],"attr":{"dilations":{"list":{"s":[],"i":["1","1","1","1"],"f":[],"b":[],"type":[],"shape":[],"tensor":[],"func":[]}},"T":{"type":1},"strides":{"list":{"s":[],"i":["1","1","1","1"],"f":[],"b":[],"type":[],"shape":[],"tensor":[],"func":[]}},"data_format":{"s":[78,72,87,67]},"use_cudnn_on_gpu":{"b":true},"padding":{"s":[83,65,77,69]}},"name":"MobilenetV1/Logits/Conv2d_1c_1x1/convolution","op":"Conv2D"},{"input":["MobilenetV1/Logits/Conv2d_1c_1x1/convolution","MobilenetV1/Logits/Conv2d_1c_1x1/biases"],"attr":{"T":{"type":1},"data_format":{"s":[78,72,87,67]}},"name":"MobilenetV1/Logits/Conv2d_1c_1x1/BiasAdd","op":"BiasAdd"},{"input":["MobilenetV1/Logits/Conv2d_1c_1x1/BiasAdd"],"attr":{"squeeze_dims":{"list":{"s":[],"i":["1","2"],"f":[],"b":[],"type":[],"shape":[],"tensor":[],"func":[]}},"T":{"type":1}},"name":"MobilenetV1/Logits/SpatialSqueeze","op":"Squeeze"},{"input":["MobilenetV1/Logits/SpatialSqueeze","MobilenetV1/Predictions/Reshape/shape"],"attr":{"T":{"type":1},"Tshape":{"type":3}},"name":"MobilenetV1/Predictions/Reshape","op":"Reshape"},{"input":["MobilenetV1/Predictions/Reshape"],"attr":{"dtype":{"type":1},"shape":{"shape":{"dim":[{"size":"-1"},{"size":"1001"}]}}},"name":"input_1/BottleneckInputPlaceholder","op":"PlaceholderWithDefault"},{"input":["input_1/BottleneckInputPlaceholder","final_training_ops/weights/final_weights"],"attr":{"T":{"type":1},"transpose_a":{"b":false},"transpose_b":{"b":false}},"name":"final_training_ops/Wx_plus_b/MatMul","op":"MatMul"},{"input":["final_training_ops/Wx_plus_b/MatMul","final_training_ops/biases/final_biases"],"attr":{"T":{"type":1}},"name":"final_training_ops/Wx_plus_b/add","op":"Add"},{"input":["final_training_ops/Wx_plus_b/add"],"attr":{"T":{"type":1}},"name":"final_result","op":"Softmax"}],"library":{"function":[],"gradient":[]},"versions":{"badConsumers":[]}},"weightsManifest":[{"paths":["group1-shard1of1"],"weights":[{"name":"MobilenetV1/Conv2d_0/weights","shape":[3,3,3,8],"dtype":"float32"},{"name":"MobilenetV1/MobilenetV1/Conv2d_0/BatchNorm/batchnorm/mul","shape":[8],"dtype":"float32"},{"name":"MobilenetV1/MobilenetV1/Conv2d_0/BatchNorm/batchnorm/sub","shape":[8],"dtype":"float32"},{"name":"MobilenetV1/Conv2d_1_depthwise/depthwise_weights","shape":[3,3,8,1],"dtype":"float32"},{"name":"MobilenetV1/MobilenetV1/Conv2d_1_depthwise/BatchNorm/batchnorm/mul","shape":[8],"dtype":"float32"},{"name":"MobilenetV1/MobilenetV1/Conv2d_1_depthwise/BatchNorm/batchnorm/sub","shape":[8],"dtype":"float32"},{"name":"MobilenetV1/Conv2d_1_pointwise/weights","shape":[1,1,8,16],"dtype":"float32"},{"name":"MobilenetV1/MobilenetV1/Conv2d_1_pointwise/BatchNorm/batchnorm/mul","shape":[16],"dtype":"float32"},{"name":"MobilenetV1/MobilenetV1/Conv2d_1_pointwise/BatchNorm/batchnorm/sub","shape":[16],"dtype":"float32"},{"name":"MobilenetV1/Conv2d_2_depthwise/depthwise_weights","shape":[3,3,16,1],"dtype":"float32"},{"name":"MobilenetV1/MobilenetV1/Conv2d_2_depthwise/BatchNorm/batchnorm/mul","shape":[16],"dtype":"float32"},{"name":"MobilenetV1/MobilenetV1/Conv2d_2_depthwise/BatchNorm/batchnorm/sub","shape":[16],"dtype":"float32"},{"name":"MobilenetV1/Conv2d_2_pointwise/weights","shape":[1,1,16,32],"dtype":"float32"},{"name":"MobilenetV1/MobilenetV1/Conv2d_2_pointwise/BatchNorm/batchnorm/mul","shape":[32],"dtype":"float32"},{"name":"MobilenetV1/MobilenetV1/Conv2d_2_pointwise/BatchNorm/batchnorm/sub","shape":[32],"dtype":"float32"},{"name":"MobilenetV1/Conv2d_3_depthwise/depthwise_weights","shape":[3,3,32,1],"dtype":"float32"},{"name":"MobilenetV1/MobilenetV1/Conv2d_3_depthwise/BatchNorm/batchnorm/mul","shape":[32],"dtype":"float32"},{"name":"MobilenetV1/MobilenetV1/Conv2d_3_depthwise/BatchNorm/batchnorm/sub","shape":[32],"dtype":"float32"},{"name":"MobilenetV1/Conv2d_3_pointwise/weights","shape":[1,1,32,32],"dtype":"float32"},{"name":"MobilenetV1/MobilenetV1/Conv2d_3_pointwise/BatchNorm/batchnorm/mul","shape":[32],"dtype":"float32"},{"name":"MobilenetV1/MobilenetV1/Conv2d_3_pointwise/BatchNorm/batchnorm/sub","shape":[32],"dtype":"float32"},{"name":"MobilenetV1/Conv2d_4_depthwise/depthwise_weights","shape":[3,3,32,1],"dtype":"float32"},{"name":"MobilenetV1/MobilenetV1/Conv2d_4_depthwise/BatchNorm/batchnorm/mul","shape":[32],"dtype":"float32"},{"name":"MobilenetV1/MobilenetV1/Conv2d_4_depthwise/BatchNorm/batchnorm/sub","shape":[32],"dtype":"float32"},{"name":"MobilenetV1/Conv2d_4_pointwise/weights","shape":[1,1,32,64],"dtype":"float32"},{"name":"MobilenetV1/MobilenetV1/Conv2d_4_pointwise/BatchNorm/batchnorm/mul","shape":[64],"dtype":"float32"},{"name":"MobilenetV1/MobilenetV1/Conv2d_4_pointwise/BatchNorm/batchnorm/sub","shape":[64],"dtype":"float32"},{"name":"MobilenetV1/Conv2d_5_depthwise/depthwise_weights","shape":[3,3,64,1],"dtype":"float32"},{"name":"MobilenetV1/MobilenetV1/Conv2d_5_depthwise/BatchNorm/batchnorm/mul","shape":[64],"dtype":"float32"},{"name":"MobilenetV1/MobilenetV1/Conv2d_5_depthwise/BatchNorm/batchnorm/sub","shape":[64],"dtype":"float32"},{"name":"MobilenetV1/Conv2d_5_pointwise/weights","shape":[1,1,64,64],"dtype":"float32"},{"name":"MobilenetV1/MobilenetV1/Conv2d_5_pointwise/BatchNorm/batchnorm/mul","shape":[64],"dtype":"float32"},{"name":"MobilenetV1/MobilenetV1/Conv2d_5_pointwise/BatchNorm/batchnorm/sub","shape":[64],"dtype":"float32"},{"name":"MobilenetV1/Conv2d_6_depthwise/depthwise_weights","shape":[3,3,64,1],"dtype":"float32"},{"name":"MobilenetV1/MobilenetV1/Conv2d_6_depthwise/BatchNorm/batchnorm/mul","shape":[64],"dtype":"float32"},{"name":"MobilenetV1/MobilenetV1/Conv2d_6_depthwise/BatchNorm/batchnorm/sub","shape":[64],"dtype":"float32"},{"name":"MobilenetV1/Conv2d_6_pointwise/weights","shape":[1,1,64,128],"dtype":"float32"},{"name":"MobilenetV1/MobilenetV1/Conv2d_6_pointwise/BatchNorm/batchnorm/mul","shape":[128],"dtype":"float32"},{"name":"MobilenetV1/MobilenetV1/Conv2d_6_pointwise/BatchNorm/batchnorm/sub","shape":[128],"dtype":"float32"},{"name":"MobilenetV1/Conv2d_7_depthwise/depthwise_weights","shape":[3,3,128,1],"dtype":"float32"},{"name":"MobilenetV1/MobilenetV1/Conv2d_7_depthwise/BatchNorm/batchnorm/mul","shape":[128],"dtype":"float32"},{"name":"MobilenetV1/MobilenetV1/Conv2d_7_depthwise/BatchNorm/batchnorm/sub","shape":[128],"dtype":"float32"},{"name":"MobilenetV1/Conv2d_7_pointwise/weights","shape":[1,1,128,128],"dtype":"float32"},{"name":"MobilenetV1/MobilenetV1/Conv2d_7_pointwise/BatchNorm/batchnorm/mul","shape":[128],"dtype":"float32"},{"name":"MobilenetV1/MobilenetV1/Conv2d_7_pointwise/BatchNorm/batchnorm/sub","shape":[128],"dtype":"float32"},{"name":"MobilenetV1/Conv2d_8_depthwise/depthwise_weights","shape":[3,3,128,1],"dtype":"float32"},{"name":"MobilenetV1/MobilenetV1/Conv2d_8_depthwise/BatchNorm/batchnorm/mul","shape":[128],"dtype":"float32"},{"name":"MobilenetV1/MobilenetV1/Conv2d_8_depthwise/BatchNorm/batchnorm/sub","shape":[128],"dtype":"float32"},{"name":"MobilenetV1/Conv2d_8_pointwise/weights","shape":[1,1,128,128],"dtype":"float32"},{"name":"MobilenetV1/MobilenetV1/Conv2d_8_pointwise/BatchNorm/batchnorm/mul","shape":[128],"dtype":"float32"},{"name":"MobilenetV1/MobilenetV1/Conv2d_8_pointwise/BatchNorm/batchnorm/sub","shape":[128],"dtype":"float32"},{"name":"MobilenetV1/Conv2d_9_depthwise/depthwise_weights","shape":[3,3,128,1],"dtype":"float32"},{"name":"MobilenetV1/MobilenetV1/Conv2d_9_depthwise/BatchNorm/batchnorm/mul","shape":[128],"dtype":"float32"},{"name":"MobilenetV1/MobilenetV1/Conv2d_9_depthwise/BatchNorm/batchnorm/sub","shape":[128],"dtype":"float32"},{"name":"MobilenetV1/Conv2d_9_pointwise/weights","shape":[1,1,128,128],"dtype":"float32"},{"name":"MobilenetV1/MobilenetV1/Conv2d_9_pointwise/BatchNorm/batchnorm/mul","shape":[128],"dtype":"float32"},{"name":"MobilenetV1/MobilenetV1/Conv2d_9_pointwise/BatchNorm/batchnorm/sub","shape":[128],"dtype":"float32"},{"name":"MobilenetV1/Conv2d_10_depthwise/depthwise_weights","shape":[3,3,128,1],"dtype":"float32"},{"name":"MobilenetV1/MobilenetV1/Conv2d_10_depthwise/BatchNorm/batchnorm/mul","shape":[128],"dtype":"float32"},{"name":"MobilenetV1/MobilenetV1/Conv2d_10_depthwise/BatchNorm/batchnorm/sub","shape":[128],"dtype":"float32"},{"name":"MobilenetV1/Conv2d_10_pointwise/weights","shape":[1,1,128,128],"dtype":"float32"},{"name":"MobilenetV1/MobilenetV1/Conv2d_10_pointwise/BatchNorm/batchnorm/mul","shape":[128],"dtype":"float32"},{"name":"MobilenetV1/MobilenetV1/Conv2d_10_pointwise/BatchNorm/batchnorm/sub","shape":[128],"dtype":"float32"},{"name":"MobilenetV1/Conv2d_11_depthwise/depthwise_weights","shape":[3,3,128,1],"dtype":"float32"},{"name":"MobilenetV1/MobilenetV1/Conv2d_11_depthwise/BatchNorm/batchnorm/mul","shape":[128],"dtype":"float32"},{"name":"MobilenetV1/MobilenetV1/Conv2d_11_depthwise/BatchNorm/batchnorm/sub","shape":[128],"dtype":"float32"},{"name":"MobilenetV1/Conv2d_11_pointwise/weights","shape":[1,1,128,128],"dtype":"float32"},{"name":"MobilenetV1/MobilenetV1/Conv2d_11_pointwise/BatchNorm/batchnorm/mul","shape":[128],"dtype":"float32"},{"name":"MobilenetV1/MobilenetV1/Conv2d_11_pointwise/BatchNorm/batchnorm/sub","shape":[128],"dtype":"float32"},{"name":"MobilenetV1/Conv2d_12_depthwise/depthwise_weights","shape":[3,3,128,1],"dtype":"float32"},{"name":"MobilenetV1/MobilenetV1/Conv2d_12_depthwise/BatchNorm/batchnorm/mul","shape":[128],"dtype":"float32"},{"name":"MobilenetV1/MobilenetV1/Conv2d_12_depthwise/BatchNorm/batchnorm/sub","shape":[128],"dtype":"float32"},{"name":"MobilenetV1/Conv2d_12_pointwise/weights","shape":[1,1,128,256],"dtype":"float32"},{"name":"MobilenetV1/MobilenetV1/Conv2d_12_pointwise/BatchNorm/batchnorm/mul","shape":[256],"dtype":"float32"},{"name":"MobilenetV1/MobilenetV1/Conv2d_12_pointwise/BatchNorm/batchnorm/sub","shape":[256],"dtype":"float32"},{"name":"MobilenetV1/Conv2d_13_depthwise/depthwise_weights","shape":[3,3,256,1],"dtype":"float32"},{"name":"MobilenetV1/MobilenetV1/Conv2d_13_depthwise/BatchNorm/batchnorm/mul","shape":[256],"dtype":"float32"},{"name":"MobilenetV1/MobilenetV1/Conv2d_13_depthwise/BatchNorm/batchnorm/sub","shape":[256],"dtype":"float32"},{"name":"MobilenetV1/Conv2d_13_pointwise/weights","shape":[1,1,256,256],"dtype":"float32"},{"name":"MobilenetV1/MobilenetV1/Conv2d_13_pointwise/BatchNorm/batchnorm/mul","shape":[256],"dtype":"float32"},{"name":"MobilenetV1/MobilenetV1/Conv2d_13_pointwise/BatchNorm/batchnorm/sub","shape":[256],"dtype":"float32"},{"name":"MobilenetV1/Logits/Conv2d_1c_1x1/weights","shape":[1,1,256,1001],"dtype":"float32"},{"name":"MobilenetV1/Logits/Conv2d_1c_1x1/biases","shape":[1001],"dtype":"float32"},{"name":"MobilenetV1/Predictions/Reshape/shape","shape":[2],"dtype":"int32"},{"name":"final_training_ops/weights/final_weights","shape":[1001,424],"dtype":"float32"},{"name":"final_training_ops/biases/final_biases","shape":[424],"dtype":"float32"}]}]}